da_ai_evaluator/saved_stuff/policies/FlappyBird-v0_policy.pth (torch, 15337 bytes, 11 tensors)

mlp_extractor.policy_net.0.weight f4 [32, 2]
0	0x3e43be7d	0.19115634
1	0xbde21a1d	-0.11040137
2	0x3d90b8ac	0.07066473
3	0xbe1b7651	-0.15181853
4	0xbec52a23	-0.3850871
5	0x3f17424e	0.5908555
6	0x3e92ae72	0.28648716
7	0x3e1ac64a	0.15114704
8	0xbe78077f	-0.2422161
9	0x3e9cab37	0.30599377
10	0x3eaad864	0.33368218
11	0x3e489a54	0.19590122
12	0xbec712dc	-0.38881576
13	0x3e801699	0.2501724
14	0xbcf0da31	-0.029400917
15	0xbd8854c5	-0.066567935
16	0xbec65196	-0.3873412
17	0xbce1fe3c	-0.027587049
18	0x3bc74073	0.006080681
19	0x3e49a8c8	0.19693291
20	0x3e77a2e8	0.24183238
21	0xbd82e761	-0.06391788
22	0xbea22a7c	-0.31673038
23	0xbd40e3be	-0.047092192
24	0xbe2ca4ab	-0.16859691
25	0xbb326d2b	-0.0027225714
26	0xbd0f4d60	-0.0349859
27	0x3e425d5b	0.18980925
28	0x3dac614a	0.08416994
29	0x3eef8081	0.46777728
30	0x3df1c053	0.11804261
31	0xbdafdfd9	-0.085876174
32	0xbe4a8912	-0.1977885
33	0xbda739ed	-0.08165345
34	0x3e50c5e4	0.2038799
35	0x3e486f1d	0.19573636
36	0x3e31c9f8	0.17362201
37	0x3f2b0740	0.6680794
38	0xbe78d235	-0.24298938
39	0xbec50e59	-0.3848751
40	0xbe166a91	-0.1468909
41	0x3e8635ad	0.26212826
42	0xbde61b0f	-0.1123563
43	0x3ee2afa4	0.44274628
44	0xbe8f2095	-0.27954546
45	0x3e8f61a5	0.28004184
46	0xbe85cc2f	-0.26132342
47	0xbdc5ab4d	-0.09651814
48	0xbdaf0a2c	-0.08546862
49	0x3d2d8806	0.04236605
50	0xbeff9a7c	-0.4992255
51	0x3e095490	0.13411164
52	0x3e8b30ae	0.27185577
53	0x3e8cbec4	0.27489293
54	0x3cdbe0bf	0.026840566
55	0x3e8607b5	0.26177755
56	0xbe41242d	-0.18861456
57	0xbdf68482	-0.120369926
58	0x3f1026f8	0.5630946
59	0xbe89682e	-0.26837295
60	0xbeb54892	-0.3540693
61	0xbd19c89c	-0.03754483
62	0x3f0f8da2	0.5607549
63	0xbd23068f	-0.039801177

mlp_extractor.policy_net.0.bias f4 [32]
0	0x3d2cc818	0.04218301
1	0x3d2c5b06	0.042078994
2	0xbd0fb656	-0.035086
3	0x3d08db43	0.03341223
4	0xbd2ba8da	-0.041909076
5	0x3d1f5b04	0.03890516
6	0xbd297830	-0.041374385
7	0x3cf833a7	0.030298067
8	0xbd1d3473	-0.038380098
9	0x3d260433	0.04053135
10	0x3d2d0fef	0.042251524
11	0xbd2932ed	-0.041308332
12	0xbd2a074a	-0.041510858
13	0x3cea0b6c	0.0285699
14	0xbd2c078c	-0.041999385
15	0x3d1d8a6b	0.038462084
16	0xbd2ad3ea	-0.041706003
17	0xbb37978c	-0.0028013913
18	0xbd010ffe	-0.031509392
19	0xbcab3bf6	-0.020902615
20	0xbd1ec43c	-0.038761362
21	0xbd2c2d67	-0.042035487
22	0xbd072e65	-0.03300323
23	0x3acf7820	0.0015828647
24	0xbd2d2390	-0.042270243
25	0xbd29908e	-0.041397624
26	0x3d1e2d1a	0.03861723
27	0xbd2a56b2	-0.041586585
28	0xbc58d177	-0.013233534
29	0x3d27cfa0	0.04096949
30	0xbd2b44a5	-0.04181351
31	0x3d1c4957	0.03815588

mlp_extractor.policy_net.2.weight f4 [32, 32]
0	0xbe3b6e53	-0.18303804
1	0xbeb8da96	-0.36104268
2	0x3ea0e237	0.31422588
3	0xbe21fa10	-0.15818048
4	0x3e338be7	0.17533837
5	0x3e4dbeae	0.2009227
6	0x3eab8cf8	0.33505988
7	0x3ea95ea2	0.33080012
8	0x3ed27f4e	0.4111275
9	0x3f206854	0.6265919
10	0xbecdc195	-0.40186754
11	0xbe957595	-0.2919127
12	0x3d9bf734	0.0761551
13	0x3dcbb487	0.09946542
14	0x3d95f550	0.0732218
15	0x3e768881	0.2407551
16	0xbcd4c5e8	-0.025973275
17	0xbca90322	-0.020631377
18	0x3e8f1c46	0.27951258
19	0x3e465cf2	0.19371393
20	0xbd818e7f	-0.06326007
21	0xbd858eda	-0.065213874
22	0x3e8d4db2	0.2759834
23	0xbd8935c5	-0.06699709
24	0xbeb6012b	-0.35547766
25	0x3eeba34a	0.46023017
26	0xbe9cea58	-0.3064754
27	0x3c854741	0.016269328
28	0x3de77624	0.113018304
29	0xbe030870	-0.12796187
30	0x3bb9d6c3	0.0056713535
31	0xbe3c3e5f	-0.18383168
32	0xbe938dad	-0.28819028
33	0x3e75404c	0.23950309
34	0xbe00acac	-0.12565869
35	0x3e4a685d	0.19766374
36	0x3e0cfac7	0.13767539
37	0x3eb77599	0.35831907
38	0xbd6388f3	-0.055550527
39	0x3daec93b	0.085344754
40	0xbe1dd22c	-0.15412205
41	0x3ea425ab	0.32059988
42	0x3dd7b150	0.105318666
43	0x3e829a10	0.25508165
44	0xbee73d7d	-0.451641
45	0x3eb371f9	0.35047892
46	0xbe082d9b	-0.13298647
47	0xbe9987ec	-0.29986513
48	0x3c83280b	0.016010305
49	0x3cd0532a	0.02543028
50	0x3e0bb2ec	0.13642472
51	0x3e95e505	0.2927629
52	0xbe2af3c2	-0.16694549
53	0xbe10efad	-0.14153929
54	0xbeebce06	-0.4605562
55	0x3e7b1afc	0.24522012
56	0xbea1d8cc	-0.31610715
57	0xbefd1296	-0.49428242
58	0x3d582043	0.052765142
59	0xbe2d940d	-0.16951008
60	0x3da31055	0.079620995
61	0xbe5a1504	-0.2129708
62	0xbefde154	-0.49585974
63	0xbe26274a	-0.16225925
64	0x3e0b2c50	0.13591123
65	0x3e873d9a	0.26414186
66	0x3e9bba00	0.30415344
67	0x3d87b3ff	0.066261284
68	0xbcc92140	-0.024551988
69	0xbea8b2a3	-0.3294879
70	0x3ef1391f	0.47113892
71	0x3e47b488	0.19502461
72	0x3e97ca61	0.2964659
73	0xbdb32aab	-0.08748373
74	0x3e7045b4	0.2346409
75	0x3e63191e	0.2217755
76	0xbe612c13	-0.21989469
77	0x3cc2eb16	0.023793738
78	0x3e58206e	0.21106121
79	0x3da6c42f	0.08142888
80	0x3ee8f4cb	0.45499262
81	0xbcee7ea1	-0.029113116
82	0xbdd2655e	-0.102732405
83	0xbe3dee0b	-0.18547837
84	0x3eab738a	0.33486587
85	0xbed60be5	-0.4180595
86	0xbd6649df	-0.056222793
87	0xbe9eb3cb	-0.30996546
88	0x3e1e9897	0.15487896
89	0xbca1597a	-0.019695986
90	0xbf13d4cf	-0.57746595
91	0xbd8694dc	-0.065713614
92	0x3e850899	0.25983122
93	0x3e331180	0.17487144
94	0xbe9228af	-0.28546664
95	0xbe1ab3e6	-0.15107688
96	0xbe6fe6a1	-0.23427822
97	0x3e3b4809	0.18289198
98	0x3d670d5e	0.056409232
99	0xbddc79e1	-0.10765434
100	0x3eb17ac1	0.34663966
101	0x3e123ecf	0.14281772
102	0xbceefc46	-0.029173028
103	0x3b8af8fc	0.004241107
104	0x3e58b69b	0.21163408
105	0x3ce9cfb0	0.028541416
106	0x3e617517	0.22017322
107	0xbdc20087	-0.09472757
108	0x3e3cef4f	0.18450664
109	0xbe2da2f1	-0.16956688
110	0xbdb11fbe	-0.086486325
111	0x3ee53510	0.44767046
112	0xbed75c0c	-0.42062414
113	0x3ecb4b09	0.39705685
114	0xbebf9df3	-0.37425193
115	0xbead9edc	-0.33910263
116	0xbee8e903	-0.45490274
117	0xbe4754b3	-0.19465904
118	0xbf38283b	-0.71936387
119	0xbc724d0d	-0.014788878
120	0xbcda7ff0	-0.026672333
121	0xbe04c596	-0.12965998
122	0xbd9d0db2	-0.07668628
123	0xbe163414	-0.14668304
124	0x3dbffd1b	0.09374448
125	0xbc854bf2	-0.016271565
126	0x3e0bc481	0.13649179
127	0x3eb89813	0.36053523
128	0x3edc615e	0.43043035
129	0xbe914525	-0.28373066
130	0xbefeac00	-0.497406
131	0x3ca44cf1	0.02005622
132	0x3e33c5ce	0.17555925
133	0x3e0eb22e	0.13935158
134	0x3d731493	0.059345793
135	0xbd934fdc	-0.07192966
136	0x3dc579e0	0.096423864
137	0x3e8cc4db	0.2749394
138	0x3e1ee484	0.1551686
139	0x3ebf7db9	0.37400606
140	0x3e6a8703	0.22903065
141	0xbecd2693	-0.40068492
142	0x3e0251bf	0.12726496
143	0xbe710826	-0.23538265
144	0x3e80efe8	0.25183034
145	0xbc28398f	-0.010267629
146	0x3e2f8381	0.17140009
147	0xbd8398a3	-0.064255975
148	0x3dcc26f0	0.09968364
149	0xbe4970c0	-0.19671917
150	0xbdf5a144	-0.119936496
151	0xbea5d6d2	-0.32390457
152	0xbd85afea	-0.065276936
153	0x3e5e4852	0.21707276
154	0x3d83057a	0.06397529
155	0xbecd4d3b	-0.40097985
156	0x3d0ab547	0.033864286
157	0xbf195db5	-0.5990861
158	0x3e5693d7	0.20954834
159	0xbd186e75	-0.037214715
160	0xbf195aa4	-0.5990393
161	0x3e7f62d8	0.2494005
162	0xbe13c241	-0.1442957
163	0x3e2b14e2	0.16707185
164	0x3ecbe3f8	0.39822364
165	0x3e2e1ee1	0.17003967
166	0xbd285c6a	-0.041103758
167	0x3db2b044	0.08725026
168	0x3db6227b	0.088932954
169	0xbe39cee4	-0.18145329
170	0xbe477a4c	-0.19480246
171	0x3db8c498	0.09021872
172	0x3e9a389e	0.3012132
173	0xbeb59085	-0.35461822
174	0x3e8534df	0.260169
175	0x3dad961c	0.08475897
176	0x3e32c18f	0.17456649
177	0xbf440488	-0.76569414
178	0xbd5bfdbd	-0.05370878
179	0xbc1dada2	-0.009623917
180	0x3e6035ec	0.2189557
181	0xbdf7304b	-0.12069758
182	0x3d915ed5	0.07098166
183	0x3e11bc32	0.14231947
184	0x3e8e12e6	0.27748793
185	0x3ea5335d	0.3226575
186	0xbd484956	-0.048898064
187	0x3ec6d27f	0.3883247
188	0x3e11f28d	0.14252682
189	0xbea235e1	-0.3168173
190	0xbe0ab725	-0.13546427
191	0xbde02c3f	-0.10945939
192	0x3e93bb58	0.2885387
193	0xbea8f409	-0.32998684
194	0x3e625b2c	0.22105092
195	0xbe699ff7	-0.22814928
196	0x3ebecff0	0.3726802
197	0xbca31b54	-0.019910492
198	0x3ee1d5f8	0.44108558
199	0x3cc99c60	0.024610698
200	0xbeb1eee9	-0.34752586
201	0x3da2e8da	0.07954569
202	0xbc342554	-0.010995228
203	0x3ed7166c	0.42009294
204	0x3ebc38dc	0.3676213
205	0xbea6e9a8	-0.3260014
206	0x3e3c1971	0.1836908
207	0x3cd03ed0	0.025420576
208	0xbdafff69	-0.085936375
209	0xbe08869c	-0.133326
210	0xbd88b0de	-0.0667436
211	0x3e3b60a6	0.18298587
212	0x3e38e83b	0.18057339
213	0x3f172906	0.5904697
214	0xbdde3eb8	-0.108518064
215	0x3e87eddf	0.2654867
216	0xbd2e34a0	-0.042530656
217	0xbe06d74e	-0.1316807
218	0xbe362260	-0.1778655
219	0x3e47792d	0.19479819
220	0x3f0ba36f	0.54546255
221	0x3e5b7b3e	0.21433732
222	0xbda49e75	-0.08038036
223	0xbe8be149	-0.27320316
224	0x3b853fa5	0.004066425
225	0x3e57fcab	0.21092479
226	0x3f243a73	0.64151686
227	0xbdab2ef3	-0.08358564
228	0xbdb3c1da	-0.087772086
229	0x3ed29902	0.4113236
230	0x3df45063	0.11929395
231	0xbeb99c8a	-0.36252242
232	0xbd5079f8	-0.05089757
233	0xbeeb2150	-0.45923853
234	0x3e434b20	0.19071627
235	0xbdc7dbc2	-0.09758712
236	0x3ec73aa0	0.38911915
237	0xbdf033c7	-0.11728626
238	0xbead89d5	-0.3389422
239	0xbdbd4eab	-0.0924352
240	0x3ec9d453	0.39419803
241	0x3c438223	0.0119328825
242	0x3e9a45cc	0.30131376
243	0x3eac6e85	0.3367807
244	0xbe6e1e7c	-0.23253816
245	0x3e2e69aa	0.17032495
246	0x3d8ac0db	0.067750655
247	0xbe1833c9	-0.14863504
248	0xbda52642	-0.08063938
249	0x3e25c994	0.16190177
250	0xbe37bb40	-0.17942524
251	0xbda20928	-0.07911903
252	0x3db45c70	0.088066936
253	0xbea6d5b1	-0.3258491
254	0xbe172be6	-0.1476284
255	0x3e0cd87d	0.13754459

mlp_extractor.policy_net.2.bias f4 [32]
0	0xbd14e09b	-0.036347013
1	0x3d286134	0.041108325
2	0xbd260021	-0.040527467
3	0x3d0f6899	0.03501186
4	0xbd291eaf	-0.041289028
5	0xbd280e7e	-0.041029446
6	0xbd27ac74	-0.04093595
7	0xbd0cc515	-0.03436764
8	0x3d244118	0.04010114
9	0x3d282536	0.041051112
10	0xbd1598de	-0.03652274
11	0xbd195460	-0.037433982
12	0x3d277e9c	0.04089223
13	0x3d1da50a	0.03848747
14	0xbd27608d	-0.040863562
15	0xbd259b24	-0.040431157
16	0xbcfcb6af	-0.03084883
17	0x3d059872	0.032616086
18	0xbd0af442	-0.03392435
19	0x3d27629f	0.040865537
20	0x3d26c00a	0.040710486
21	0xbd10e4d4	-0.035374478
22	0x3d2861e5	0.041108985
23	0x3ce00ea8	0.027350739
24	0x3d26b933	0.040703963
25	0x3d1a7d85	0.03771736
26	0xbd19d4c3	-0.03755642
27	0xbce5d43c	-0.028055303
28	0x3d27f368	0.041003615
29	0xbd0f1148	-0.03492859
30	0xbd26e2d0	-0.04074365
31	0x3d09b219	0.033617113

mlp_extractor.value_net.0.weight f4 [32, 2]
0	0x3e447afb	0.19187538
1	0xbe3f19b2	-0.18662146
2	0xbf1ed873	-0.62049025
3	0x3ebbf84d	0.36712876
4	0xbda0cfce	-0.078521356
5	0xbe851d92	-0.25999123
6	0xbdb6a8a6	-0.08918886
7	0xbe4aad4a	-0.19792667
8	0xbd8975aa	-0.06711896
9	0xbdf7bdb1	-0.12096728
10	0xbaa30a88	-0.0012439052
11	0x3e254d73	0.16142826
12	0x3e988c59	0.29794577
13	0x3d91cf73	0.07119646
14	0x3dd2d362	0.10294224
15	0x3d5cbfbe	0.053893797
16	0xbe433956	-0.1906484
17	0xbd86d65f	-0.06583857
18	0xbe842236	-0.2580735
19	0x3ea84c0f	0.32870528
20	0x3ed64c92	0.41855294
21	0xbed8196d	-0.42206898
22	0xbd54586a	-0.05184213
23	0xbee7bab2	-0.45259625
24	0x3e718ff5	0.23590071
25	0x3eb158c0	0.34638023
26	0xbe8970ae	-0.2684378
27	0xbdcfc992	-0.10145868
28	0x3e82c035	0.25537267
29	0x3ef87160	0.48523998
30	0xbe25e798	-0.16201627
31	0x3bfc84ac	0.0077062454
32	0x3e124a55	0.14286168
33	0xbe9ca6c1	-0.30595973
34	0x3dcfa20d	0.101383306
35	0xbc924ff3	-0.017860388
36	0x3e32de8e	0.1746771
37	0x3db0f9c5	0.0864139
38	0xbed1e971	-0.40998414
39	0xbeb6775d	-0.35637942
40	0x3e7f9689	0.24959768
41	0xbe7666d9	-0.24062671
42	0xbeb012df	-0.34389398
43	0x3e167eaf	0.14696763
44	0x3d001be4	0.0312766
45	0xbe81637f	-0.25271222
46	0xbecd40b9	-0.40088442
47	0xbd875580	-0.06608105
48	0x3dc1b203	0.09457781
49	0xbc627fa1	-0.013824374
50	0xbece19f6	-0.40254182
51	0xbdb5057f	-0.08838939
52	0xbe9225c0	-0.28544426
53	0xbea649b0	-0.32478094
54	0x3e0f09ed	0.1396863
55	0xbe825bc1	-0.25460628
56	0xbbfd2ad8	-0.0077260546
57	0x3eac2a67	0.336261
58	0x3e6c12d5	0.23054059
59	0x3e6c24af	0.23060869
60	0xbe564b29	-0.20927109
61	0xbe68e3e4	-0.22743183
62	0x3e0f9de5	0.14025076
63	0xbe50485d	-0.20340104

mlp_extractor.value_net.0.bias f4 [32]
0	0x00000000	0.0
1	0x00000000	0.0
2	0x00000000	0.0
3	0x00000000	0.0
4	0x00000000	0.0
5	0x00000000	0.0
6	0x00000000	0.0
7	0x00000000	0.0
8	0x00000000	0.0
9	0x00000000	0.0
10	0x00000000	0.0
11	0x00000000	0.0
12	0x00000000	0.0
13	0x00000000	0.0
14	0x00000000	0.0
15	0x00000000	0.0
16	0x00000000	0.0
17	0x00000000	0.0
18	0x00000000	0.0
19	0x00000000	0.0
20	0x00000000	0.0
21	0x00000000	0.0
22	0x00000000	0.0
23	0x00000000	0.0
24	0x00000000	0.0
25	0x00000000	0.0
26	0x00000000	0.0
27	0x00000000	0.0
28	0x00000000	0.0
29	0x00000000	0.0
30	0x00000000	0.0
31	0x00000000	0.0

mlp_extractor.value_net.2.weight f4 [32, 32]
0	0x3e86d7b1	0.26336434
1	0x3d35ed72	0.0444159
2	0xbe43b5e4	-0.19112355
3	0xbe442544	-0.1915484
4	0x3e5fd742	0.21859458
5	0x3e85c8c6	0.2612974
6	0x3de5c6a7	0.112195306
7	0x3e22a191	0.15881945
8	0x3e953581	0.29142383
9	0xbd573ba7	-0.052547123
10	0x3e494a6c	0.19657296
11	0x3d00880f	0.031379756
12	0xbe56bdc2	-0.20970824
13	0xbe381dd3	-0.17980127
14	0x3da546ef	0.0807017
15	0x3ed09158	0.40735888
16	0x3f01e4a3	0.50739497
17	0x3e2e7aff	0.17039107
18	0x3e4348ae	0.19070694
19	0xbe80b8fa	-0.25141126
20	0x3e5a8881	0.21341135
21	0xbe78dddf	-0.24303387
22	0xbdd63375	-0.104590334
23	0x3d94a990	0.07258904
24	0x3b6028cd	0.0034204007
25	0x3f1c828f	0.61136717
26	0x3e99aa97	0.30012962
27	0xbe25352f	-0.16133569
28	0xbe84bb78	-0.25924277
29	0xbe5ecad7	-0.21757065
30	0x3ea865a8	0.32890058
31	0xbea6b515	-0.3256003
32	0xbe7dc96c	-0.24783868
33	0xbd8ec38e	-0.06970893
34	0x3eb89030	0.36047506
35	0xbe25a4bd	-0.16176124
36	0xbe3e365a	-0.18575421
37	0x3c0698d6	0.00821515
38	0x3e653878	0.22384822
39	0xbeaeb98a	-0.3412593
40	0x3d855563	0.06510427
41	0xbb2a66b3	-0.0026001155
42	0x3e75e072	0.240114
43	0xbda1523e	-0.078770146
44	0xbecd0a4f	-0.40046927
45	0xbeb0ed27	-0.34555933
46	0x3e1fb879	0.15597714
47	0x3e6368e1	0.22207977
48	0x3ed9a884	0.4251138
49	0x3d1bb087	0.038010146
50	0xbf096f63	-0.5368559
51	0x3e893c43	0.2680379
52	0x3eb8d012	0.36096245
53	0x3e5de94a	0.21671024
54	0x3eda1449	0.425936
55	0xbe3b71af	-0.18305086
56	0x3dc3ed97	0.09566801
57	0xbdb24e24	-0.087063104
58	0xbdd6d63f	-0.10490083
59	0x3e09888f	0.13430999
60	0x3e8b2a70	0.27180815
61	0xbe336de9	-0.17522396
62	0xbe5b5a93	-0.2142127
63	0xbe1f88d7	-0.15579544
64	0xbebd16b8	-0.36931396
65	0x3e9eb576	0.3099782
66	0x3e280e96	0.16411814
67	0xbea837a9	-0.32854965
68	0x3dcc3ceb	0.09972557
69	0x3e036d42	0.12834647
70	0x3e0a7764	0.13522106
71	0xbdfdf622	-0.12400462
72	0xbed49097	-0.41516563
73	0xbde2a750	-0.110670686
74	0xbe7db8df	-0.24777554
75	0x3dd55f7d	0.104186036
76	0x3ecdb909	0.40180233
77	0x3e93848d	0.28812066
78	0xbe86a330	-0.26296377
79	0x3dd15174	0.10220614
80	0x3cf75de3	0.030196136
81	0xbeca3955	-0.39496866
82	0xbe254851	-0.16140868
83	0xbea4cfa1	-0.32189658
84	0x3e6556a3	0.2239633
85	0xbedd2822	-0.4319468
86	0x3ddf0f56	0.10891597
87	0xbd9e29fb	-0.07722851
88	0xbe773d5c	-0.241445
89	0x3ec28ec7	0.37999555
90	0xbe540c7d	-0.20707889
91	0xbe52638e	-0.2054579
92	0x3e6a0968	0.2285515
93	0xbc823979	-0.015896546
94	0xbe74417c	-0.23853105
95	0xbe6c7918	-0.23093069
96	0x3e88afb8	0.26696563
97	0xbe32bcea	-0.17454877
98	0xbdbd6daa	-0.092494324
99	0xbf03cc46	-0.5148357
100	0xbf1b8458	-0.60748816
101	0xbea112fa	-0.3145979
102	0x3d94b1da	0.07260485
103	0xbe285d86	-0.16441926
104	0x3df28cd0	0.11843264
105	0xbde377b3	-0.11106815
106	0xbe197f64	-0.14990002
107	0x3e8c3ff2	0.27392536
108	0x3e3752c4	0.17902666
109	0xbb607927	-0.00342519
110	0xbe6aeab8	-0.229411
111	0x3ec0b808	0.37640405
112	0x3e75b606	0.23995218
113	0x3e369511	0.17830302
114	0xbcd73b06	-0.026273262
115	0xbe1b3da5	-0.15160234
116	0xbe726aac	-0.23673505
117	0xbdb61abd	-0.08891819
118	0xbddd5e26	-0.10808973
119	0x3e30f0f3	0.17279415
120	0x3dfe68fc	0.12422368
121	0xbdfa7409	-0.12229163
122	0xbdcc7c27	-0.09984618
123	0xbe268d40	-0.1626482
124	0xbe92c571	-0.2866626
125	0xbe4475b4	-0.19185525
126	0xbedeb90f	-0.43500564
127	0x3ed98bbb	0.42489418
128	0x3e4361fa	0.19080344
129	0xbf3668de	-0.71253765
130	0x3e870d1d	0.26377192
131	0x3cf9269c	0.030413918
132	0x3c78ed91	0.015193359
133	0xbd939206	-0.07205586
134	0x3da71594	0.081584126
135	0x3ca54f24	0.020179339
136	0xbed66cfc	-0.41880023
137	0xbc1773ec	-0.0092439465
138	0xbe26401e	-0.16235396
139	0xbdbdf846	-0.0927587
140	0x3e3a0369	0.18165363
141	0xbeaa143a	-0.33218557
142	0xbd694f38	-0.056960315
143	0xbf20b84b	-0.6278121
144	0x3d88bb4a	0.066763476
145	0xbe1d94da	-0.15388814
146	0xbe027060	-0.1273818
147	0xbe6c52b2	-0.23078421
148	0x3ea49df8	0.3215177
149	0x3e4a9160	0.19782019
150	0xbbe127b0	-0.006871186
151	0xbb09fbbb	-0.0021054584
152	0xbcd33014	-0.025779761
153	0x3e9723f2	0.29519612
154	0x3e9dc25f	0.30812356
155	0xbd678083	-0.056519043
156	0xbead2e1f	-0.3382425
157	0xbe842b18	-0.25814128
158	0xbd52a502	-0.051426895
159	0x3ddf714b	0.10910281
160	0x3e3ef31d	0.18647428
161	0x3ef0dafe	0.47042078
162	0xbe836828	-0.25665402
163	0x3e0a171d	0.1348538
164	0xbb6cb14e	-0.0036116424
165	0x3df7cab7	0.12099212
166	0xbeecd784	-0.46258175
167	0xbe063947	-0.13107787
168	0xbd63dbc2	-0.0556295
169	0xbe635c6d	-0.22203226
170	0xbe6aff09	-0.2294885
171	0x3d5c69d1	0.053811852
172	0xbe02f74d	-0.1278965
173	0xbe63bbaf	-0.22239564
174	0xbea13d00	-0.31491852
175	0xbe54429d	-0.20728536
176	0x3d2b8b47	0.041880872
177	0xbe055fae	-0.1302478
178	0xbe406f38	-0.18792427
179	0x3e1fff64	0.15624768
180	0xbd95f154	-0.0732142
181	0xbe3d18f7	-0.18466555
182	0x3f17b383	0.5925829
183	0xbdd6fb35	-0.10497133
184	0x3ee0de75	0.4391972
185	0x3e89f289	0.26942852
186	0x3d34c316	0.04413136
187	0x3ea42c92	0.32065254
188	0xbeed1c41	-0.4631062
189	0x3ddc03f0	0.107429385
190	0xbdda14a0	-0.10648465
191	0x3dd18393	0.10230174
192	0xbdec73a6	-0.11545496
193	0xbc96f8f0	-0.01842925
194	0x3d9f50c0	0.07779074
195	0x3e87478a	0.26421767
196	0xbe181de8	-0.14855158
197	0x3e3894aa	0.18025461
198	0xbded9630	-0.116009116
199	0x3f31357e	0.6922225
200	0xbd929d62	-0.07158925
201	0xbe9aaec4	-0.3021146
202	0x3e1a8b6a	0.15092245
203	0xbcffd3ba	-0.031228889
204	0x3d554918	0.05207166
205	0x3d2b10fd	0.04176425
206	0x3ec56f32	0.38561398
207	0x3db0a651	0.08625472
208	0xbda6b300	-0.0813961
209	0x3dfe2b76	0.12410633
210	0x3d97fbdd	0.07421086
211	0x3d99ae9f	0.075040095
212	0x3ede5803	0.43426523
213	0xbdddb88e	-0.10826217
214	0xbe2f92b5	-0.17145808
215	0x3dff97df	0.12480139
216	0x3f061882	0.52381146
217	0x3e8b8652	0.27250916
218	0xbe90b1be	-0.28260607
219	0xbd6dc161	-0.05804575
220	0x3e056276	0.13025841
221	0x3c6bc995	0.014391323
222	0xbf07345f	-0.52814287
223	0x3e8d3e89	0.27586773
224	0x3e1965d9	0.14980258
225	0x3e73cdc7	0.23808967
226	0x3f1ea2b0	0.6196699
227	0x3e230256	0.1591886
228	0xbd154d5c	-0.03645073
229	0x3a663db7	0.0008783
230	0xbef9426d	-0.4868349
231	0xbe0de727	-0.13857709
232	0xbe17f490	-0.14839387
233	0xbd78292a	-0.060586132
234	0xbd82c4b7	-0.06385177
235	0x3ed6d349	0.41958073
236	0x3e1fa3bc	0.15589803
237	0x3ba989ce	0.0051738983
238	0x3e082281	0.13294412
239	0xbd2f98db	-0.042870384
240	0x3edca6b2	0.43095928
241	0x3e25a32a	0.16175523
242	0x3ee6a7e2	0.4504996
243	0x3d9519c2	0.072803035
244	0x3d6bc707	0.057562854
245	0x3ed2e173	0.4118763
246	0xba005962	-0.00048961316
247	0x3e75a240	0.23987675
248	0xbe5f3971	-0.21799256
249	0xbd4f36ea	-0.05058948
250	0xbe9ca634	-0.30595553
251	0xbdc889cc	-0.09791908
252	0xbe620dec	-0.22075623
253	0x3e050388	0.12989628
254	0xbd749b67	-0.059718516
255	0xbeb97ddf	-0.36228845

mlp_extractor.value_net.2.bias f4 [32]
0	0x00000000	0.0
1	0x00000000	0.0
2	0x00000000	0.0
3	0x00000000	0.0
4	0x00000000	0.0
5	0x00000000	0.0
6	0x00000000	0.0
7	0x00000000	0.0
8	0x00000000	0.0
9	0x00000000	0.0
10	0x00000000	0.0
11	0x00000000	0.0
12	0x00000000	0.0
13	0x00000000	0.0
14	0x00000000	0.0
15	0x00000000	0.0
16	0x00000000	0.0
17	0x00000000	0.0
18	0x00000000	0.0
19	0x00000000	0.0
20	0x00000000	0.0
21	0x00000000	0.0
22	0x00000000	0.0
23	0x00000000	0.0
24	0x00000000	0.0
25	0x00000000	0.0
26	0x00000000	0.0
27	0x00000000	0.0
28	0x00000000	0.0
29	0x00000000	0.0
30	0x00000000	0.0
31	0x00000000	0.0

action_net.weight f4 [2, 32]
0	0xbd185dc9	-0.037198815
1	0x3d2e2571	0.042516176
2	0xbd251030	-0.04029864
3	0x3d2244ca	0.039616384
4	0xbd2ed292	-0.042681284
5	0xbd2b5c8f	-0.041836318
6	0xbd28b901	-0.04119206
7	0xbd1bd736	-0.038047038
8	0x3d1e80e0	0.038697124
9	0x3d251aad	0.040308643
10	0xbd1c46ab	-0.03815333
11	0xbd2068b0	-0.039162338
12	0x3d183973	0.037164163
13	0x3d0fce2a	0.035108723
14	0xbd1e779d	-0.03868829
15	0xbd200161	-0.039063815
16	0xbd18be2d	-0.03729074
17	0x3d12e749	0.035865102
18	0xbcbbf60b	-0.02294447
19	0x3d33e07f	0.043915268
20	0x3d1bb374	0.038012937
21	0xbd166ab3	-0.03672285
22	0x3d346160	0.044038177
23	0x3cea1655	0.028575102
24	0x3d250e05	0.040296573
25	0x3d1436b8	0.036184996
26	0xbd2244d8	-0.039616436
27	0xbd08e6bb	-0.033423167
28	0x3d22f0f8	0.039780587
29	0xbd2217bd	-0.03957342
30	0xbd2532bc	-0.040331587
31	0x3d18e4db	0.03732763
32	0x3d1418f3	0.036156606
33	0xbd2ca212	-0.04214675
34	0x3d22b2e7	0.039721396
35	0xbd183613	-0.037160944
36	0x3d327b78	0.04357478
37	0x3d27ab68	0.04093495
38	0x3d219317	0.039446916
39	0x3d26f92a	0.040764965
40	0xbd194ea6	-0.03742852
41	0xbd2aaf04	-0.041670814
42	0x3d21f90c	0.03954415
43	0x3d18c6ea	0.037299074
44	0xbd2f5782	-0.042808063
45	0xbd291f1a	-0.041289426
46	0x3d2372e9	0.03990451
47	0x3d1e3fe8	0.038635164
48	0x3d199d12	0.03750331
49	0xbd0f2d98	-0.03495559
50	0x3cd210aa	0.025642712
51	0xbd1d83f2	-0.03845591
52	0xbd23401c	-0.03985606
53	0x3d11b8b0	0.035576522
54	0xbd23095f	-0.03980386
55	0xbcc31a54	-0.023816265
56	0xbd1e1688	-0.038595706
57	0xbd1fd027	-0.03901687
58	0x3d23d9ec	0.04000275
59	0x3d09783f	0.03356194
60	0xbd22c9a4	-0.03974308
61	0x3d18d41e	0.037311666
62	0x3d234d35	0.039868552
63	0xbd1770ac	-0.036972687

action_net.bias f4 [2]
0	0x3d10f328	0.035388142
1	0xbd10f328	-0.035388142

value_net.weight f4 [1, 32]
0	0xbe151c00	-0.14561462
1	0x3e4a665b	0.19765608
2	0x3e3b81e6	0.18311271
3	0xbb2a0cc7	-0.0025947557
4	0x3bc268e6	0.005932915
5	0xbde610df	-0.11233687
6	0xbe5a210a	-0.21301666
7	0x3da5bac8	0.08092266
8	0x3e0c7a95	0.13718636
9	0x3e5f5f7a	0.21813765
10	0xbe82583d	-0.25457945
11	0xbdf74eb1	-0.12075556
12	0xbd52fed9	-0.051512573
13	0xbd0c579a	-0.03426323
14	0x3e4b22c8	0.19837487
15	0x3e94aa7f	0.29036328
16	0xbe3465e5	-0.17616995
17	0xbe5a778d	-0.21334668
18	0x3e82ec50	0.25570917
19	0xbd89fecd	-0.067380525
20	0xbe84fefc	-0.25975788
21	0xbde31880	-0.110886574
22	0xbe2a5c94	-0.16636878
23	0xbee26792	-0.44219643
24	0xbc935dfa	-0.017989147
25	0xbd972f80	-0.07382107
26	0xbdaff134	-0.08590928
27	0x3e5f0ec7	0.21782981
28	0x3e50e117	0.20398365
29	0x3cd5589c	0.026043229
30	0x3d3f0c0a	0.04664234
31	0x3df083ce	0.1174389
