da_ai_evaluator/saved_stuff/policies/FlappyBird-v0_policy_epochs_1.pth (torch, 15563 bytes, 11 tensors)

mlp_extractor.policy_net.0.weight f4 [32, 2]
00000000: 2636 5c3e 2b11 5bbe c8a2 07be 9136 533e
00000010: 2659 fe3e d6f9 e6bd 5e98 2cbd da31 febc
00000020: 398c c23e 7914 773e 9103 2f3f 7f49 17be
00000030: 05e3 08be 65d7 21be 60c9 10bd a45e bcbe
00000040: 8f2e 3a3d 5c4f 013f a011 a2be 1c16 8b3b
00000050: 5f98 b1be f6da 9cbd 590b 8c3d 3cca 81be
00000060: 1d1e 41be 693f 1abf 54f0 b73e 2f27 c0bd
00000070: cf43 1ebf b20d 293e 3ef5 8a3e 54df c53c
00000080: fdfe 34be 23b8 c83e c67d a9be 552b 823e
00000090: 95a5 68be 3345 983e a6a2 38bd b3e1 9e3c
000000a0: 69a1 373e fb3e ca3c cef1 9ebd 549b dabe
000000b0: f8e7 463e 1a1a 77be b84e 32be 18fa 99bb
000000c0: 9c58 05bd bab4 353e 50aa d63d be5c 623e
000000d0: a19e 553e 3db0 4e3e 1caa 3e3e ff7f 043f
000000e0: 379b 93be 5d52 c13e ffa9 723e e608 db3d
000000f0: e022 7b3e 1bd8 01be 0fce c5bc 07af c3bd
0.21505031 -0.21393268 -0.1324569 0.20626284 0.4967739 -0.11278121 -0.042137496 -0.03102963
0.37997606 0.24128903 0.68364817 -0.1477413 -0.13367851 -0.15804823 -0.035348296 -0.36790955
0.045454558 0.5051172 -0.31654072 0.004244579 -0.34686562 -0.07658951 0.06838102 -0.25349605
-0.18859144 -0.60253006 0.35925543 -0.09382474 -0.6182222 0.1650913 0.2714023 0.024154343
-0.17675395 0.39202985 -0.3310377 0.25423685 -0.22719415 0.29740295 -0.04507699 0.019394731
0.17932667 0.024688235 -0.07760964 -0.4269663 0.19424427 -0.2413105 -0.17412841 -0.004699003
-0.032555208 0.17744723 0.10481703 0.22105691 0.20861293 0.20184417 0.18619579 0.51757807
-0.28829357 0.3775815 0.23697661 0.106950566 0.24525023 -0.12680094 -0.024146108 -0.09554868

mlp_extractor.policy_net.0.bias f4 [32]
00000000: 6ff9 183d 785e 2abd 0e83 1a3d 23e5 2cbd
00000010: 0431 2a3d 70fa 263d bd8b 2dbd 6372 173d
00000020: 20f8 29bd 0430 0ebd 910f 2bbd cc6f 2b3d
00000030: 680e 2bbd ae84 113d 8334 0bbd e61e 143d
00000040: ad11 2dbd 170f 02bd 78e6 0fbd aafe 1bbd
00000050: 9544 1f3d 18a2 293d b2ad 1d3d e5c3 0cbc
00000060: 9e02 f0bc 2953 2b3d 3519 163d 0d55 11bd
00000070: f286 29bd 41dd 06bd 52e8 eb3c ce9c 2c3d
0.037347253 -0.041594 0.03772264 -0.04221071 0.04155065 0.04076618 -0.042369593 0.036974322
-0.041496396 -0.03471376 -0.041762892 0.041854665 -0.041761786 0.035526924 -0.033985626 0.03616228
-0.042253185 -0.031752672 -0.0351319 -0.038084663 0.038883764 0.04141435 0.038495727 -0.008591627
-0.029298123 0.041827355 0.036645133 -0.0354815 -0.04138846 -0.032925848 0.028797302 0.042141728

mlp_extractor.policy_net.2.weight f4 [32, 32]
00000000: 4135 c13e aad2 593e 1257 70bd 5b28 6c3e
00000010: 972a 0dbf 3f39 193d 5786 c2be 81cd 7c3c
00000020: 14dc 20bd 541f a13c 9d15 1cbe b284 51be
00000030: 938f 13be 1ac3 5ebc 261a 9b3b fb9f a3be
00000040: 8c6d e8be 0732 7c3e 7339 9fbe 1f9d 4ebe
00000050: 129b cbbe bb21 983e 6bc6 87be 3f99 d1bc
00000060: 972d f03d 4ddd 00be 4993 94be baf6 443d
00000070: 9665 f73e a462 393e b658 82be 0dab bd3d
00000080: 1aba 5ebe fd3f 143e 5896 3d3e 1155 65bc
00000090: dba4 76be cff0 16be 1cfb f7bd 35c1 3d3e
000000a0: 77b4 843e 0b0c f63d 853e 6c3d dd0c 333e
000000b0: d618 113c fd94 dabe 84bf 963d 6f40 09be
000000c0: c9d4 b43e 387d 033f d25c ae3e bd96 37be
000000d0: 5811 15bf 5018 b1bd 900e 423e 5bac 373d
000000e0: 9399 f6be f11c 4b3e 23f3 053e ad4a 6dbd
000000f0: 0f52 25be e95f a73e 493c 07bd 4b5a c53e
00000100: 152c 52be 9eee 16bd 1b32 11be 5390 e43d
00000110: 23a0 063d 469d c33e d651 e53d 2a26 ccbe
00000120: 0322 bebd 755f db3e a772 6a3e eca3 03bf
00000130: 2ee2 dc3e 2a12 d13d 75c9 a73d 6438 9dbd
00000140: d372 1a3e 5079 103e 2f4c 933e 2e7f 55be
00000150: 6d7d 0cbf 55ac d13d a859 90be aa7a 313e
00000160: 7c9b 013e 86d8 f7be ad2e 48be 28e9 94be
00000170: 6340 b2bd 07a8 1ebc b01e c93e 9a9a b6bc
00000180: 3aeb 763d 0a46 3b3d 189e bbbe 329f ce3d
00000190: de14 03be 909a 2bbe 727f e53d 038d 81be
000001a0: 9d99 e2be 2e46 5b3e f3d6 9d3e f661 4b3e
000001b0: 2f0b 6b3e 850e afbe 062e 43bc 3b96 a73e
000001c0: 99f1 a03e 78f1 a93e 1091 f2bd 6a55 8b3e
000001d0: 795f 62be 0e96 9abe 950d 18be a9c0 99be
000001e0: 2eff 29bc bc83 3ebe f112 82be 1e12 94bd
000001f0: ac9e 8d3e dfe1 fabe 0801 09bf ffef 7f3e
00000200: 07bd 9abd c175 063e 8a35 ddbe cc11 383e
00000210: 288e 44be edda 893e 62d5 3e3e 2b4c 393f
00000220: c71b 223e 2c0e 903e 66a9 e23d 43d9 1ebe
00000230: 6fe7 233d a194 bf3e c34f 2bbe 4c9a dcbb
00000240: f56f 37be e75e 1b3e 0f1b b23e b2b6 5b3e
00000250: 4429 38be ac06 d0be 6bbb 1f3d be66 5b3e
00000260: 65ff 9cbd 884b a9be f409 9f3e 3482 3c3e
00000270: a583 ed3d e383 ecbd 2b3d c4be abdd 29be
00000280: 9e4c 063d 33d6 ab3d a20a 9abd 4451 32be
00000290: b951 e2be ce79 cdbe 9586 063e edef 6bbe
000002a0: 7633 e93b 0c56 383d 6fae fabd 89d3 84bc
000002b0: ea16 80be b5de c33d c099 5b3e ad39 373c
000002c0: f78b bdbe e84b 4cbe ed2c 2b3f 3379 79bd
000002d0: 90fc acbd 2347 20be fd38 cc3d 3879 a53e
000002e0: d789 6abe 7bc9 32bd 894c bbbe 211c 5ebd
000002f0: 5a53 eb3d 225f 27bf c1ac 503e 5e46 643e
00000300: 3b71 0cbf cba1 28be 08a0 cdbe 06da 173f
00000310: d2aa f0bd f72b 3dbe 9825 f33d 064b cd3a
00000320: f690 6e3e ce25 89bd c147 043c 3365 c6be
00000330: 55f7 e63c 4b11 c9be 7b4c 57be b4ee 8ebc
00000340: a1cd 773d 2313 f93d ff99 403d 75b6 cabb
00000350: e31f de3e 88fe e43e bda9 053e 7cb7 bf3e
00000360: b73d 11be b483 61be d431 a6be b3c1 14bd
00000370: b38c 4e3d 8100 bfbc c154 89be f671 733e
00000380: 34d0 5bbe 114b 0a3f 319f b3be ba8c 19bd
00000390: b87f cb3d c2b9 b6be 37a5 d13e 6c31 233e
000003a0: 717e 443e 98a2 ac3e 80e9 95bc 4e2a 94bd
000003b0: 761d 3fbe 1e74 ad3e 0824 c83e bba8 103e
000003c0: a919 d03e bd42 7abe c10f 43be 0ada dfbc
000003d0: 20e8 89be fed6 aa3e 0f48 823e d5f3 7fbe
000003e0: 1d99 133d 5f13 d0bd 4b80 85be a902 393d
000003f0: db6a c73e 24ed 323e 5e5b 8b3d 2dcf a43d
0.37735942 0.21271768 -0.058676787 0.2306227 -0.5514311 0.03740811 -0.37993118 0.015429855
-0.039272383 0.019668259 -0.1524262 -0.20460775 -0.14410238 -0.0135963205 0.0047333417 -0.31957993
-0.45396078 0.24628459 -0.31098518 -0.20177124 -0.39766747 0.29713234 -0.26518568 -0.025585769
0.117274456 -0.1258442 -0.2901862 0.04808686 0.4831969 0.18104035 -0.25458306 0.09261141
-0.2175068 0.14477535 0.18514383 -0.013997332 -0.24086325 -0.14740299 -0.12108442 0.18530734
0.25918934 0.12014016 0.05767681 0.17485376 0.008856019 -0.42691794 0.073607475 -0.13403486
0.35318592 0.51362944 0.3405519 -0.17928596 -0.5822959 -0.08647215 0.18950868 0.044842105
-0.48164043 0.19835259 0.1308103 -0.057932544 -0.16144584 0.3269036 -0.033016477 0.3854545
-0.20524628 -0.036848657 -0.1417927 0.1116034 0.032867562 0.38205928 0.111972496 -0.39872867
-0.09283831 0.42846265 0.22895299 -0.51422 0.4314131 0.10208543 0.08192722 -0.07676771
0.15082864 0.14108777 0.2876906 -0.20849296 -0.54878885 0.10237948 -0.28193402 0.17331949
0.12656969 -0.48407382 -0.19549055 -0.29084134 -0.08703687 -0.0096836155 0.39281225 -0.022290517
0.060282923 0.04572109 -0.36644053 0.10088958 -0.12800929 -0.1675818 0.11205949 -0.25302896
-0.44257823 0.2141349 0.30828056 0.19861588 0.22953485 -0.34190765 -0.011912828 0.32731804
0.31434324 0.3319204 -0.11844075 0.27213603 -0.22106732 -0.30192608 -0.14848931 -0.300298
-0.010375781 -0.1860494 -0.25405076 -0.07230018 0.2766012 -0.4900045 -0.535172 0.24993895
-0.07555585 0.13130857 -0.4320491 0.17975539 -0.19194853 0.2692484 0.18636087 0.7238185
0.15830909 0.28135812 0.110674664 -0.15512566 0.040015634 0.37418082 -0.16729645 -0.006732261
-0.17913802 0.15172921 0.3478627 0.21456411 -0.17984492 -0.4063009 0.038997095 0.21425912
-0.076659 -0.33065438 0.3106228 0.18409044 0.11597375 -0.11548593 -0.38327917 -0.16588466
0.03278791 0.08390465 -0.07521559 -0.17413813 -0.44202974 -0.40131992 0.13137276 -0.23040743
0.0071167303 0.045003936 -0.12240302 -0.01621415 -0.25017482 0.09563962 0.2144537 0.011183185
-0.37020847 -0.19950831 0.66865426 -0.0609066 -0.0844661 -0.15652137 0.09971807 0.32319045
-0.22904144 -0.043649178 -0.3658183 -0.054226045 0.114905074 -0.65379536 0.203784 0.22292468
-0.54860276 -0.16467969 -0.40161157 0.5931705 -0.117513314 -0.18473803 0.11872405 0.0015662618
0.23297486 -0.06696664 0.008073748 -0.38749084 0.028194109 -0.39271006 -0.21025269 -0.017447807
0.060498837 0.12161853 0.047021862 -0.0061863014 0.43383703 0.44725442 0.13053031 0.37444675
-0.14183699 -0.22022897 -0.3245989 -0.03631754 0.05042715 -0.02331567 -0.26822475 0.23773941
-0.21466142 0.5402079 -0.3508239 -0.037487723 0.0993647 -0.35688597 0.4094636 0.15936822
0.19188859 0.337178 -0.018299818 -0.072346315 -0.18663582 0.33877653 0.3908999 0.14126866
0.40644577 -0.24439521 -0.19048978 -0.027325649 -0.2693491 0.3336715 0.254456 -0.24995358
0.036034692 -0.10159945 -0.26074442 0.045168553 0.38948712 0.17473274 0.06804536 0.08047328

mlp_extractor.policy_net.2.bias f4 [32]
00000000: 52a5 26bd 49dc 07bd abf8 26bd 3e5a 1cbd
00000010: 0368 27bd 9f72 10bd cb0e 26bd cd07 27bd
00000020: 066a 26bd e925 0e3d 486d 1ebd 8cb5 27bd
00000030: 14eb 123d c02a 133d c7d5 253d 850b 29bd
00000040: 6439 24bd fff6 0cbd 7f28 1b3d 1521 153d
00000050: affe c9bc e2d7 18bd aae6 13bd 6ac2 1abd
00000060: 4d4d 273d 0150 273d 3282 1cbd 8af7 283d
00000070: 4f03 283d 1eb6 1cbd f47f 03bd 02c6 263d
-0.040685005 -0.033169065 -0.040764492 -0.038172 -0.040870678 -0.03526556 -0.04054145 -0.040778924
-0.040628456 0.034704123 -0.038678437 -0.04094462 0.03586872 0.03592944 0.040487077 -0.04127075
-0.040093794 -0.03441524 0.037880417 0.036408503 -0.024657575 -0.037315257 -0.03610865 -0.037783064
0.040845204 0.040847782 -0.0382101 0.041251697 0.04101878 -0.038259618 -0.032104447 0.04071618

mlp_extractor.value_net.0.weight f4 [32, 2]
00000000: eb9f f8bd a3d7 92bd e48e 0dbe 62f5 70be
00000010: d94e 733e cd9e e33d da42 b3bd 6ecf b43d
00000020: 62ab 153e 235e 50bd c419 e1bd 046f bdbc
00000030: 999b b53d 33a9 f6bd 09c9 173f 7362 bbbd
00000040: a275 afbc 441a 7cbe 2b56 70bd beaf 223e
00000050: e3dc 9b3e df12 a6be 26a3 c7be 21ab 843b
00000060: b1b6 ca3c 4055 ba3e 4614 b63c bb1b 593e
00000070: cc1f 6b3e e333 963d 3550 9dbe 5ddc cf3d
00000080: 16b6 d0bd 4cfe 083f 7ead 303e a26e c8be
00000090: 8d7b 473f 4d42 ab3e 8d2c ea3d e832 c7be
000000a0: ecfd 563e 04cd 9d3d b847 33be d144 11bf
000000b0: db36 88be 7163 ab3e 4318 48be 265c 6abd
000000c0: babb 2c3c 64e8 09bd df11 65be 087d 95be
000000d0: d19d 4ebe 0dd6 573e 9422 22be e702 d4bd
000000e0: c07a 823e a95f 8ebe 137d 88be 7448 e33d
000000f0: 2813 7b3d 7b85 b33d 0b23 e5bd 5b70 b4be
-0.12139877 -0.07170036 -0.1382404 -0.23531106 0.23760547 0.11114273 -0.08752985 0.088286266
0.14616159 -0.050871026 -0.109912425 -0.023124225 0.088675685 -0.12043991 0.5929113 -0.09149637
-0.021418396 -0.24619395 -0.058675926 0.15887353 0.3044196 -0.32436273 -0.3899166 0.0040487205
0.024745317 0.36393166 0.022226464 0.21201985 0.22961348 0.07334115 -0.30725256 0.10149453
-0.1019098 0.53513026 0.17253682 -0.39146906 0.779229 0.3344902 0.11434279 -0.38906026
0.20995301 0.07705119 -0.17507827 -0.5674563 -0.2660435 0.33474305 -0.19540505 -0.057216786
0.010542804 -0.03366889 -0.22370099 -0.29196954 -0.2017739 0.21077748 -0.15833503 -0.10352116
0.25484276 -0.27807358 -0.26657924 0.11097804 0.061297566 0.08765694 -0.111883245 -0.3524197

mlp_extractor.value_net.0.bias f4 [32]
00000000: 0000 0000 0000 0000 0000 0000 0000 0000
00000010: 0000 0000 0000 0000 0000 0000 0000 0000
00000020: 0000 0000 0000 0000 0000 0000 0000 0000
00000030: 0000 0000 0000 0000 0000 0000 0000 0000
00000040: 0000 0000 0000 0000 0000 0000 0000 0000
00000050: 0000 0000 0000 0000 0000 0000 0000 0000
00000060: 0000 0000 0000 0000 0000 0000 0000 0000
00000070: 0000 0000 0000 0000 0000 0000 0000 0000
0.0 0.0 0.0 0.0 0.0 0.0 0.0 0.0
0.0 0.0 0.0 0.0 0.0 0.0 0.0 0.0
0.0 0.0 0.0 0.0 0.0 0.0 0.0 0.0
0.0 0.0 0.0 0.0 0.0 0.0 0.0 0.0

mlp_extractor.value_net.2.weight f4 [32, 32]
00000000: 7832 183e d25a b63c 58fe aa3c 8ddb 5c3c
00000010: a5b8 963e 0c55 973e 3d5e 84be 8b6e fbbe
00000020: cb10 cabe 52e0 55bd c88a 3ebe bfc6 23bd
00000030: 8e2a f33e 664b 21be f341 20be 2063 443d
00000040: d7f7 ee3e 42cf 6d3d 55b4 c73e d57a de3d
00000050: a7ff 7abc ff73 8d3d b97a 403e 5dfa b4bd
00000060: b4ee 133e 41e0 04bf 75e1 3ebe 0678 55bd
00000070: 2116 4d3e 13cb b23d 3fc5 3c3e d750 d9be
00000080: 7296 d6be 5131 3bbe 6a37 b8be f466 bcbe
00000090: b3f9 00be 231b bb3e bb0b 8ebe 05df d73e
000000a0: 0999 fabd 6056 15be 8d21 163e 54a8 d3bd
000000b0: 4722 a63e b7d0 bebd 004c 1fbd a633 6c3e
000000c0: 98c3 bcbd dfe8 80be 55e0 533e 61bc d4bc
000000d0: 4961 b13d 32db 893e edde 863e cf12 8c3e
000000e0: c3bf 833e de38 ac3e baf0 ad3e e51a a03e
000000f0: e0f7 513e 0dd9 51be 77b1 29be d2b5 4fbe
00000100: 0608 d0bd 3d38 78be 5851 8e3d 80c7 38be
00000110: 04da c73e be72 50be 52cb f1bd b6b0 5ebd
00000120: 4d3d 593e 278d 16bd 5ca2 3cbe 077a 883e
00000130: 4284 e13e 769c 3a3c e58f 58bd bca1 0b3e
00000140: 25dd 25be 6a52 8a3e 6c10 98be ae53 03be
00000150: 0a8c b23e e36f 9f3e 8461 493e cbf1 80be
00000160: d4a2 e03e 79f1 d33e 387c b9be 8474 eabe
00000170: 4912 883c db94 073e 3a3b 8b3d 15b9 813e
00000180: 3efa a43e 2636 a13c 1d9e fbbe eadf 8f3e
00000190: ec63 cb3e ea98 a9be 9f2a 2dbe e2e2 ca3b
000001a0: 26a3 523e e8a9 75be bab7 743d 6d50 45be
000001b0: 5dc8 47bd f3c2 493e d1ba 913e 6871 8f3e
000001c0: a4e4 6d3e 2e06 f0be 9323 19be 3e89 43be
000001d0: 5611 d33c c572 9e3e b9ea 7e3d 1b90 d8be
000001e0: 5a96 023e 2ede 81be b12c 723e 8676 a73e
000001f0: 2289 efbd c570 f9bd f284 c93d 4cb8 573e
00000200: 260c 283d cc14 223e ad66 083f 7754 e93e
00000210: 5d77 683e bbbe 433e 2836 9d3e 442b 6dbd
00000220: 5f3b 993e e99a a33d e477 1e3e 6023 21be
00000230: 886e 3c3c 2e22 2dbe a67c a5bd 3e9a b03e
00000240: 4bbb aebd 3d7a fbbc 6c8f 0f3e 44c9 923e
00000250: e2e9 0c3e 7e58 8b3e 115f b43e 62b3 db3e
00000260: abe9 5b3e 9584 afbd 101c 7f3d 4d22 3fbd
00000270: 1b75 c0be bac5 05bf 84a7 19bd 3ccd d13d
00000280: df31 58bc dc98 00bd c73a 5e3e fd4c 50be
00000290: 9dd5 9a3b 78f4 50be 0489 42bf 94b0 78be
000002a0: 0c33 dcbd 7b29 e03e 3f6e 593e 7361 d53d
000002b0: bb47 fd3d eaa9 89be ad69 983e 6bef 213a
000002c0: ae8f 02be 41ae c2bd d541 1ebe 94b9 e3bd
000002d0: 0bdb 5bbe b466 76bd a972 b6be f040 783d
000002e0: de18 813d bbad c5bc 29e1 bd3e e571 8bbe
000002f0: c212 d7be 4a61 babe f200 003e 053b f3bd
00000300: 4a24 b0be d627 e6bd 4c39 61be e80c 66bc
00000310: e84d ebbd fdb9 4fbd 48df 2e3e 3f76 04bf
00000320: d24a f03e 2ca4 f8bc cad5 9f3d f7d7 273d
00000330: f7d9 e1bc 2de6 e13e 068f d23c 8e46 d9bd
00000340: 2b03 1b3e 7a7d ddbe 8093 18be 6e9d a73d
00000350: cfc8 1dbe 9b70 933e efe0 92be 4df3 b13e
00000360: 9bae ef3d cd75 d0bd 03f8 19be 91e3 ccbe
00000370: 8e5b 163e b5f1 b1bc 7189 b5be f0fc d1be
00000380: 80d6 823d 5a67 d23e 9785 27bd 7181 4fbe
00000390: e916 e9bb 070a bdbe 1342 2c3e e6aa 19bd
000003a0: e6e1 27be def4 f03d 4749 c4bd 9880 1bbe
000003b0: 3558 8e3e f21c 1a3e 0c76 0ebf 4b01 53be
000003c0: 51d0 d3be 72a9 c3bc 2338 ca3e ddbc 323e
000003d0: 2168 92bd 45c8 6b3e 5009 b6be f8ae 58be
000003e0: 2d27 923e 1aa2 5bbe 0de8 ad3e c271 8fbd
000003f0: 308e 243e d4c9 10be 93f4 8ebe 8d86 bb3e
0.14863002 0.022260103 0.020873234 0.013480079 0.29437748 0.29557073 -0.25853148 -0.49107775
-0.39465937 -0.05221588 -0.18607628 -0.03998446 0.47493404 -0.15751418 -0.15650158 0.047946095
0.46673462 0.058058985 0.3900477 0.10863272 -0.015319741 0.0690689 0.18796815 -0.088368155
0.14446527 -0.51904684 -0.18640693 -0.052116416 0.20027973 0.087301396 0.18434618 -0.42444488
-0.41911656 -0.18280531 -0.35979778 -0.36797297 -0.12595253 0.3654414 -0.27743325 0.42162338
-0.122362204 -0.1458373 0.14661236 -0.103348404 0.32448027 -0.09317153 -0.03889084 0.23066577
-0.09216994 -0.25177667 0.20691045 -0.025968732 0.08661134 0.26925045 0.26341954 0.273581
0.2573224 0.33637136 0.33972722 0.3127052 0.20504713 -0.20492955 -0.16571604 -0.20284203
-0.1015778 -0.24240203 0.06949109 -0.18044853 0.3903352 -0.2035627 -0.118063584 -0.054367743
0.2121479 -0.036755707 -0.1842131 0.266556 0.44046217 0.011389842 -0.052871604 0.13635916
-0.16197641 0.27016002 -0.2970003 -0.1282489 0.34872466 0.3114005 0.19666106 -0.25184473
0.43874228 0.41395167 -0.36227584 -0.4579202 0.016610282 0.13240378 0.06798406 0.2533652
0.3222217 0.01967914 -0.49144068 0.2810052 0.39724672 -0.33124477 -0.1691079 0.0061915973
0.20570049 -0.23990595 0.059745528 -0.19268961 -0.048775066 0.19703273 0.28462842 0.2801621
0.2323175 -0.46879715 -0.14954977 -0.19095322 0.025765102 0.30946937 0.062235568 -0.42297444
0.12752667 -0.25364822 0.23649861 0.32707614 -0.11696078 -0.12179712 0.098398104 0.21066397
0.04102721 0.15828246 0.5328167 0.45572254 0.22701783 0.19115727 0.3070538 -0.05790259
0.2992811 0.07988531 0.15475422 -0.1573615 0.011500962 -0.1690757 -0.080804154 0.34492677
-0.08531817 -0.030697936 0.14019555 0.28669178 0.13761094 0.27215952 0.3522878 0.42910296
0.21475856 -0.0857021 0.06228262 -0.04666357 -0.37589344 -0.5225483 -0.03751327 0.102442235
-0.013195484 -0.031395778 0.2170211 -0.20341869 0.0047251717 -0.20405757 -0.7599032 -0.24286109
-0.10751924 0.43781647 0.21233462 0.104189776 0.12367197 -0.26887447 0.29768124 0.00061773387
-0.12750122 -0.095058925 -0.154548 -0.111193806 -0.21470277 -0.06015654 -0.35634354 0.060608804
0.06303571 -0.024130693 0.37085846 -0.27235332 -0.420065 -0.3640235 0.1250036 -0.118764915
-0.34402686 -0.11238067 -0.21994513 -0.014041163 -0.11489469 -0.05071448 0.17077363 -0.5174293
0.46932083 -0.03035172 0.07804449 0.040977444 -0.027569754 0.44120923 0.025702965 -0.1060916
0.15137927 -0.43259794 -0.14900017 0.08184324 -0.15408634 0.2879685 -0.28687236 0.34755936
0.11703225 -0.10178719 -0.15036015 -0.4001737 0.14683363 -0.0217217 -0.35456422 -0.41013288
0.06388569 0.41094476 -0.040898886 -0.20264222 -0.007113327 -0.36921713 0.1682208 -0.037516497
-0.16394767 0.11765455 -0.09584289 -0.15185773 0.27801672 0.15050104 -0.55648875 -0.20605962
-0.4136987 -0.023884509 0.39495954 0.17454858 -0.07148767 0.23025616 -0.3555398 -0.21160495
0.28545514 -0.21448556 0.33966103 -0.070041195 0.16069865 -0.14139491 -0.2792097 0.36626092

mlp_extractor.value_net.2.bias f4 [32]
00000000: 0000 0000 0000 0000 0000 0000 0000 0000
00000010: 0000 0000 0000 0000 0000 0000 0000 0000
00000020: 0000 0000 0000 0000 0000 0000 0000 0000
00000030: 0000 0000 0000 0000 0000 0000 0000 0000
00000040: 0000 0000 0000 0000 0000 0000 0000 0000
00000050: 0000 0000 0000 0000 0000 0000 0000 0000
00000060: 0000 0000 0000 0000 0000 0000 0000 0000
00000070: 0000 0000 0000 0000 0000 0000 0000 0000
0.0 0.0 0.0 0.0 0.0 0.0 0.0 0.0
0.0 0.0 0.0 0.0 0.0 0.0 0.0 0.0
0.0 0.0 0.0 0.0 0.0 0.0 0.0 0.0
0.0 0.0 0.0 0.0 0.0 0.0 0.0 0.0

action_net.weight f4 [2, 32]
00000000: d4b1 22bd e212 16bd 9ebd 2bbd 5e24 14bd
00000010: 4dc7 29bd 9807 0cbd 32f2 15bd 8d18 1bbd
00000020: b8a6 30bd 94f8 1e3d cc80 18bd ef12 17bd
00000030: 8ccc 233d c90e 1c3d 1bef 223d 95c9 22bd
00000040: aa7e 0dbd 9351 15bd 8a06 1a3d 5b41 1a3d
00000050: 3bd0 f8bc f4d3 2cbd ab56 19bd ac4d 29bd
00000060: d15d 213d 04f1 2c3d 106c 22bd 1be8 2a3d
00000070: 3879 1f3d c9f1 1dbd 6428 10bd 55bb 1d3d
00000080: d09d 273d c454 133d eb12 223d e6f0 1e3d
00000090: 8622 2d3d 4a9d 143d 99f0 253d 8e79 243d
000000a0: 5046 1e3d 8971 1abd 3fb9 163d cf6e 243d
000000b0: c2c7 12bd 0599 2cbd 640a 1cbd 4185 2d3d
000000c0: ee3e 083d 39a7 223d fccf 29bd 5c69 17bd
000000d0: 69ba fe3c f140 1c3d 092a 1a3d a197 1c3d
000000e0: e77e 1abd fc50 24bd df60 143d ec02 2fbd
000000f0: aea4 2abd cd5b 193d f1a3 0f3d e257 18bd
-0.03972037 -0.0366391 -0.04192888 -0.036167495 -0.041449834 -0.03418693 -0.03660793 -0.03786521
-0.043127745 0.03881128 -0.037232205 -0.03688329 0.039989993 0.038100038 0.03977881 -0.039743025
-0.034544624 -0.03645475 0.037603892 0.037659984 -0.03037273 -0.04219432 -0.03743617 -0.04133384
0.03939611 0.042222038 -0.039653838 0.04172526 0.038933963 -0.038560662 -0.03519477 0.038508732
0.040921986 0.03596951 0.039568823 0.038803957 0.042269252 0.036282815 0.040512655 0.040154986
0.038641274 -0.03770593 0.03679776 0.040144738 -0.035835035 -0.04213812 -0.038095847 0.04236341
0.03326314 0.039710257 -0.041458115 -0.036965713 0.031094747 0.03814787 0.037637744 0.038230542
-0.03771868 -0.040116295 0.036225196 -0.042727396 -0.041660957 0.037441064 0.035068456 -0.037193187

action_net.bias f4 [2]
00000000: 9ed2 103d 9ed2 10bd
0.03535711 -0.03535711

value_net.weight f4 [1, 32]
00000000: 48ac 7bbe 6e5f 5dbd 571b 30be c2bb 07bd
00000010: 612f 6b3e 137b 473e 5ded 833e 8e04 91bd
00000020: a8fc 313c 1b9c a53d 8b01 d4bd 5608 983e
00000030: dcdb f93e 5444 113d 2aa5 f83d 63e5 c6bd
00000040: 8305 afbd f115 e03d ab7b c83d 62ff 22bd
00000050: 3a54 c33e 7890 e5bc bc65 e73d 21a7 8abe
00000060: e123 efbd 6f8c b6bd f9e5 1a3e ce28 14bd
00000070: b724 563e 44b1 4b3c 4003 f9bd eace b0bd
-0.24577439 -0.054046087 -0.1719793 -0.033138044 0.22967292 0.19480543 0.2576703 -0.07080947
0.010863461 0.080864154 -0.10351857 0.2969386 0.48800552 0.035465553 0.121408775 -0.09711721
-0.08545973 0.10941685 0.09789213 -0.039794333 0.38150197 -0.02802299 0.11298701 -0.27080634
-0.11676765 -0.08913504 0.1512679 -0.036171727 0.20912443 0.0124324 -0.12158823 -0.08633216
