da_ai_evaluator/saved_stuff/policies/FlappyBird-v0_policy_epochs_1000.pth (torch, 15681 bytes, 11 tensors)

mlp_extractor.policy_net.0.weight f4 [32, 2]
0	0xbdc46790	-0.095900655
1	0x3f151ab6	0.5824388
2	0x3e60ae8a	0.21941581
3	0x3f150e5f	0.58225054
4	0x3e1e26f2	0.15444544
5	0xbf0cbe71	-0.5497809
6	0x3e9626c8	0.29326463
7	0x3f39679f	0.7242374
8	0xbe1bb1c9	-0.15204538
9	0xbeb8758a	-0.36027175
10	0xbe3ad6d2	-0.1824601
11	0xbf403b8c	-0.7509086
12	0x3e202bf9	0.15641774
13	0x3ee10fe8	0.43957448
14	0x3e723c8a	0.23655906
15	0x3f1b85bd	0.60750943
16	0x3dfe402e	0.12414585
17	0x3eee03d4	0.46487296
18	0xbc698f20	-0.014255315
19	0xbeb979b4	-0.36225665
20	0xbdab09e3	-0.08351495
21	0xbf0be9d5	-0.54653674
22	0x3c05ce06	0.008166796
23	0x3eb6cbe9	0.35702446
24	0x3e6ff261	0.23432304
25	0x3eb9e9a6	0.36311072
26	0x3e65a14a	0.22424808
27	0x3f1e85cb	0.619229
28	0x3d1eee8d	0.03880172
29	0x3aed1dc3	0.0018090535
30	0xbdb3cdf6	-0.08779518
31	0xbeccdeb3	-0.40013656
32	0x3e36a236	0.17835316
33	0x3b3b94fa	0.0028622732
34	0x3e8c2e4f	0.2737908
35	0x3f57780c	0.8416755
36	0xbcbaa8a5	-0.022785494
37	0xbebfa4cf	-0.37430426
38	0xbdae82fa	-0.085210755
39	0xbee1d8d5	-0.44110742
40	0x3df5076e	0.11964308
41	0x3f09999d	0.5375002
42	0x3ba7373a	0.005103019
43	0xbea500b8	-0.3222711
44	0x3d0ab242	0.033861406
45	0x3f056eb8	0.5212207
46	0xbe9862f0	-0.29762983
47	0xbede71c5	-0.43446174
48	0x3d43abe1	0.04777134
49	0xbe94a586	-0.29032534
50	0xbd0b156f	-0.033955988
51	0xbf41f570	-0.7576513
52	0xbe074726	-0.13210735
53	0xbed0885a	-0.40729028
54	0x3e383de8	0.17992365
55	0xbe2de828	-0.16983092
56	0xbd3d5a5e	-0.04622876
57	0xbe22b136	-0.15887913
58	0x3db5968c	0.08866605
59	0x3f010fe1	0.50414854
60	0x3d83cb6e	0.064352855
61	0x3e4e6cc2	0.20158675
62	0x3e32758f	0.17427658
63	0x3f3a9535	0.7288392

mlp_extractor.policy_net.0.bias f4 [32]
0	0x3d66d87a	0.056358792
1	0x3e010a2a	0.12601534
2	0xbe1f28a7	-0.15542851
3	0x3ddd8e95	0.10818211
4	0xbd709536	-0.05873605
5	0xbe3a8a03	-0.1821671
6	0x3dc769c3	0.09736969
7	0x3e0c98b9	0.13730134
8	0x3e0d0659	0.13771953
9	0xbe51dd6f	-0.20494626
10	0xbe3db1a9	-0.18524803
11	0x3e053025	0.13006647
12	0x3ce3176e	0.027721133
13	0x3e173bfe	0.14768979
14	0xbd566599	-0.052342985
15	0xbe21dce0	-0.15806913
16	0xbcc983a8	-0.024598911
17	0x3e2d06e7	0.16897164
18	0xbdca0e6c	-0.09866032
19	0xbe184681	-0.14870645
20	0x3e17acc3	0.14811997
21	0xbe3583b8	-0.17726028
22	0x3e284c5a	0.16435376
23	0x3e998ec0	0.29991722
24	0xbe193fe5	-0.1496578
25	0xbdce4e16	-0.100734875
26	0xbe31d5db	-0.17366736
27	0xbd84c4a6	-0.0648282
28	0xbdd80c58	-0.105492294
29	0x3e48973d	0.19588943
30	0x3dc17980	0.094470024
31	0xbe0422fb	-0.12903969

mlp_extractor.policy_net.2.weight f4 [32, 32]
0	0x3c55c8f9	0.013048404
1	0x3f2664ed	0.6499775
2	0xbf31df8a	-0.6948172
3	0x3f77cede	0.9680003
4	0x3bb922ed	0.0056499154
5	0xbf9d3f52	-1.2284949
6	0x3f0eff18	0.5585799
7	0x3ec09f20	0.37621403
8	0x3e60be48	0.21947587
9	0xbe9f831a	-0.3115471
10	0xbf1ac5eb	-0.6045825
11	0x3f18360c	0.5945747
12	0x3da91185	0.08255295
13	0x3f73f99e	0.9530276
14	0x3ea09ff4	0.31372035
15	0xbe62907d	-0.2212543
16	0x3e2aff0f	0.1669886
17	0x3fb865b6	1.440604
18	0xbe067a4b	-0.13132589
19	0xbf63be21	-0.8896199
20	0x3f502758	0.81310034
21	0xbf2eeb93	-0.6832821
22	0x3f65822b	0.89651746
23	0x3f0dd29a	0.5539948
24	0xbecface9	-0.40561607
25	0xbef86b5d	-0.48519412
26	0xbeb07eeb	-0.3447183
27	0xbebbbaea	-0.36666042
28	0xbe5456a9	-0.20736183
29	0x3ec85de3	0.3913413
30	0x3e18ea1a	0.14933053
31	0xbe1be071	-0.15222336
32	0x3ec24740	0.37944984
33	0xbea23de6	-0.3168785
34	0x3ee9ab38	0.45638442
35	0xbf00187f	-0.5003738
36	0x3d765b0d	0.060145427
37	0x3f869a98	1.0515928
38	0xbdc5a661	-0.09650875
39	0xbe372691	-0.17885806
40	0xbedfdc5a	-0.43722802
41	0x3f5e7594	0.8689816
42	0x3eaae869	0.3338044
43	0xbcf895c1	-0.030344846
44	0x3ec6b9b3	0.38813552
45	0xbf3b932d	-0.7327145
46	0x3ee2bdd3	0.4428545
47	0x3ea09f15	0.3137137
48	0x3df0472b	0.11732324
49	0xbe8c40cd	-0.2739319
50	0x3e00d841	0.12582494
51	0x3e2328ac	0.15933484
52	0xbec5f236	-0.38661355
53	0x3f04ac66	0.5182556
54	0xbf28278a	-0.6568533
55	0xbe8c7d81	-0.27439502
56	0x3d968759	0.07350034
57	0xbe31bbef	-0.17356847
58	0x3f4b1b07	0.79338115
59	0xbe69ee06	-0.22844705
60	0x3c075f49	0.008262464
61	0xbf026efe	-0.5095061
62	0xbf14d5f4	-0.58138967
63	0x3f1c55c4	0.6106837
64	0xbeb99b57	-0.36251327
65	0x3e98a2d9	0.29811743
66	0x3c0c319d	0.008556751
67	0xbd63a441	-0.055576567
68	0xbd95de98	-0.07317847
69	0xbd820d45	-0.06350187
70	0x3ec732c5	0.38905922
71	0x3cc0e788	0.023547903
72	0xbd8a4250	-0.06750929
73	0x3cba8f04	0.022773273
74	0xbcea433d	-0.028596515
75	0xbcb6de27	-0.022322727
76	0x3ddc262c	0.10749468
77	0xbe4832f2	-0.19550684
78	0xbd97d3c2	-0.074134365
79	0x3bcec0f8	0.0063096248
80	0xbe4517a8	-0.19247305
81	0x3e998b80	0.29989243
82	0xbdd5510a	-0.104158476
83	0xbed3de1d	-0.41380396
84	0x3e3339e7	0.17502557
85	0x3f062b97	0.5241026
86	0xbdabc15b	-0.08386489
87	0xbe878e17	-0.26475593
88	0x3e556a12	0.20841244
89	0xbe82deb4	-0.25560534
90	0xbed82d27	-0.42221949
91	0xbe97986e	-0.29608482
92	0x3e1f42b7	0.15552793
93	0xbea1a434	-0.3157059
94	0x3f37bae4	0.7176955
95	0x3d2e567d	0.04256295
96	0xbdc39571	-0.09549988
97	0xbee1feb1	-0.44139627
98	0xbe20bff2	-0.15698221
99	0x3e43e675	0.19130881
100	0xbdd5be42	-0.104366794
101	0xbe36da34	-0.17856675
102	0x3d861233	0.0654644
103	0x3e211ae6	0.15732917
104	0xbf005331	-0.5012694
105	0x3e084633	0.13308029
106	0x3e4891d8	0.19586885
107	0x3ecbb876	0.3978917
108	0x3e12dd79	0.14342298
109	0x3e414ffe	0.18878171
110	0xbd8e1e48	-0.069393694
111	0xbe0ea4ab	-0.13930003
112	0x3e9eb451	0.30996946
113	0xbee5a18d	-0.44849816
114	0x3db4a4bc	0.08820483
115	0xbd72abd2	-0.059245892
116	0x3e95abd4	0.29232657
117	0x3e8a3f7d	0.27001563
118	0xbe0dbf39	-0.13842477
119	0x3e3615d6	0.17781767
120	0xbe770b8c	-0.24125499
121	0xbd2208d3	-0.039559197
122	0x3e24684c	0.16055411
123	0x3d5a8a22	0.05335439
124	0x3e8051b2	0.2506233
125	0x3e820aef	0.25398967
126	0x3e93e34d	0.28884354
127	0x3e74b278	0.23896205
128	0x3d83b220	0.06430459
129	0x3c11453f	0.008866607
130	0xbda36c32	-0.07979621
131	0x3e7cbf44	0.24682337
132	0xbd3cbb04	-0.04607679
133	0x3cab59cb	0.02091684
134	0x3e230221	0.15918781
135	0x3d6a6f7a	0.05723522
136	0xbf0d14fb	-0.5511014
137	0xbefc4ee3	-0.49278936
138	0xbe51e0d3	-0.2049592
139	0x3da38d69	0.07985956
140	0xbcc1bfd2	-0.023651037
141	0xbd996c4d	-0.0749136
142	0xbdb52a92	-0.0884601
143	0x3ef48b5a	0.47762567
144	0x3e671e79	0.22570218
145	0xbda962a3	-0.082707666
146	0xbe73f4cc	-0.23823851
147	0xbd1adc52	-0.03780777
148	0xbe188054	-0.14892703
149	0xbe741bb4	-0.23838693
150	0xbe8e4c85	-0.27792755
151	0xbea51a56	-0.32246655
152	0x3db24e6b	0.08706363
153	0x3e4c8fdd	0.19976754
154	0xbe59ce89	-0.21270193
155	0xbe12d51d	-0.14339109
156	0x3d1fa71e	0.038977735
157	0x3e2860e8	0.16443217
158	0xbd837feb	-0.06420883
159	0xbe5a8958	-0.21341455
160	0xbeefb93a	-0.46821004
161	0xbf407f0b	-0.7519385
162	0x3fa39851	1.2780858
163	0xbf84b512	-1.0367758
164	0x3ecf0fa7	0.4044163
165	0x3fc0eb99	1.5071899
166	0xbf42eac3	-0.7613947
167	0xbf214e65	-0.63010246
168	0xbe9bb26e	-0.3040957
169	0x3f109bc0	0.56487656
170	0x3f4c4da0	0.79805946
171	0xbe5ac58d	-0.21364422
172	0xbf1c0568	-0.6094575
173	0xbf18a298	-0.596231
174	0xbe0e471e	-0.13894317
175	0x3f056f47	0.5212292
176	0x3ec3ce67	0.3824341
177	0xbf8e8afc	-1.1136165
178	0x3edbb88a	0.4291423
179	0x3dd1b6e7	0.10239964
180	0xbf5c2b14	-0.8600323
181	0x3f01c405	0.5068973
182	0xbf42a570	-0.7603369
183	0x3e37db94	0.17954856
184	0x3f22e6f6	0.6363367
185	0x3f181fef	0.59423727
186	0x3ec554f6	0.38541383
187	0xbc99e465	-0.018785665
188	0x3ef32175	0.47486463
189	0xbf208cd1	-0.6271487
190	0xbee8bff1	-0.4545894
191	0xbf22b38d	-0.6355522
192	0x3d056183	0.032563698
193	0xbc301bc2	-0.0107488055
194	0x3f39d997	0.7259764
195	0xbd301b92	-0.042995043
196	0xbd98d598	-0.07462615
197	0x3f4edfbc	0.8081014
198	0xbe4930dc	-0.19647545
199	0xbf15f8bf	-0.5858268
200	0xbefbb3f5	-0.49160734
201	0x3ee31330	0.44350576
202	0x3f4e5df4	0.8061211
203	0x3da0f476	0.07859127
204	0xbed0dff7	-0.40795872
205	0xbecf9c21	-0.40548804
206	0x3e64c0d8	0.22339189
207	0x3ebcbf15	0.36864534
208	0xbeb43775	-0.3519856
209	0xbf2bdf35	-0.6713746
210	0x3de9cb4a	0.114157274
211	0x3f0cd128	0.5500665
212	0xbec33562	-0.38126665
213	0x3d459da1	0.04824603
214	0xbe93e223	-0.28883466
215	0xbf1b97f5	-0.60778743
216	0xbe483af2	-0.19553736
217	0x3e0fb763	0.140348
218	0x3f12e5d7	0.5738196
219	0xbde3cc56	-0.11122958
220	0x3e7b9bf1	0.24571206
221	0xbf225097	-0.6340422
222	0xbde8af4c	-0.1136156
223	0xbcbb9440	-0.02289784
224	0x3d109d80	0.035306454
225	0x3e7c023f	0.24610232
226	0x3e8d2c0e	0.27572674
227	0xbf31bf10	-0.69432163
228	0xbe7dabf6	-0.24772629
229	0xbe83610f	-0.25659987
230	0x3e0a0f5f	0.13482426
231	0xbe64e028	-0.22351134
232	0x3de341b7	0.110965185
233	0xbe71a030	-0.23596263
234	0xbe586828	-0.21133482
235	0x3edcc24e	0.43116993
236	0xbe941240	-0.28920174
237	0xbeb65960	-0.35615063
238	0xbea71767	-0.32635042
239	0x3eacd04e	0.33752674
240	0x3dd0c00b	0.10192879
241	0xbe69c7ee	-0.22830173
242	0x3e2ccda3	0.16875319
243	0x3dc2c831	0.0951084
244	0x3cc0dedd	0.02354377
245	0x3c6ef560	0.014584869
246	0xbdc52497	-0.096261196
247	0x3eac1d05	0.3361589
248	0x3d607dec	0.05480759
249	0xbe553aa8	-0.20823157
250	0x3ec09d1d	0.37619868
251	0x3bfeb4db	0.0077730245
252	0x3e0eda09	0.13950361
253	0x3ec7530d	0.3893055
254	0x3d1a8568	0.037724882
255	0xbe6ed5bb	-0.23323719

mlp_extractor.policy_net.2.bias f4 [32]
0	0x3e91e7ea	0.2849725
1	0xbebf9fa4	-0.37426484
2	0x3dbb04d1	0.09131778
3	0x3b670274	0.0035249265
4	0xbc6ab063	-0.01432428
5	0xbe49d468	-0.19709933
6	0xbebdc407	-0.3706362
7	0xbd2d0284	-0.042238727
8	0xbe33305e	-0.1749892
9	0xbececbc7	-0.40389845
10	0xbeabf64a	-0.3358634
11	0x3cf50a84	0.02991224
12	0xbdab29d2	-0.08357586
13	0x3da42a97	0.08015936
14	0x3d2e148e	0.04250007
15	0xbde0939a	-0.10965653
16	0x3d91c344	0.07117322
17	0x3ceb553f	0.028727172
18	0xbd8063d2	-0.06269039
19	0x3d313220	0.043260694
20	0x3d752f47	0.05985954
21	0xbd8468fa	-0.06465335
22	0xbeadf3aa	-0.33974963
23	0x3d5908c4	0.052986875
24	0xbda99bcd	-0.0828167
25	0xbdc4758a	-0.09592731
26	0x3d8bf750	0.068342805
27	0xbd8eb78c	-0.069686025
28	0x3b8ce08d	0.0042992295
29	0x3e4242d9	0.18970813
30	0xbdf0c8bf	-0.11757039
31	0x3d913043	0.07089283

mlp_extractor.value_net.0.weight f4 [32, 2]
0	0x3e6d56f2	0.23177698
1	0x3eeb7944	0.45990956
2	0xbe95407b	-0.29150757
3	0xbe997617	-0.29972908
4	0xbe900484	-0.28128445
5	0x3e4cc771	0.19997956
6	0x3e633634	0.22188646
7	0x3b38958f	0.0028165316
8	0xbe23a44e	-0.15980646
9	0xbd31019f	-0.043214437
10	0xbe55f84d	-0.208955
11	0xbe46168c	-0.19344538
12	0xbd90cc29	-0.070701905
13	0xbc2d8f2e	-0.010593219
14	0x3e67622a	0.2259604
15	0x3eb1da12	0.34736687
16	0x3d52b508	0.051442176
17	0xbc54af14	-0.012981195
18	0xbd1ffac2	-0.0390575
19	0x3b9c65ec	0.004772892
20	0x3ceb07ac	0.028690182
21	0x3e4b8221	0.19873859
22	0x3e2973a2	0.16548017
23	0xbd5bcc6f	-0.05366176
24	0xbed77499	-0.42081144
25	0xbe23bb14	-0.15989333
26	0xbe058b05	-0.13041313
27	0x3d92c7ce	0.07167016
28	0xbe62d4aa	-0.22151437
29	0xbd8a70b8	-0.06759781
30	0xbc9111fa	-0.017708767
31	0xbdd87fad	-0.10571227
32	0xbe609f26	-0.2193571
33	0xbda32acf	-0.079671495
34	0xbed43da0	-0.41453266
35	0xbcac3fb6	-0.021026473
36	0xbe006bc1	-0.12541105
37	0x3dfcbc44	0.12340596
38	0xbf03f4b4	-0.5154526
39	0x3e264929	0.16238846
40	0x3e55c7b0	0.20876956
41	0x3e0b6c74	0.1361559
42	0xbdae0724	-0.08497456
43	0xbea9dfcf	-0.33178565
44	0x3aefc829	0.0018293905
45	0x3e5f85bd	0.21828361
46	0x3dfd8745	0.12379316
47	0x3d833a56	0.06407611
48	0xbec1215c	-0.37720764
49	0x3e879fe7	0.26489183
50	0xbec15fa6	-0.37768286
51	0x3ea76103	0.32691202
52	0xbda42bfd	-0.080162026
53	0x3ea927ad	0.33038083
54	0xbe3b79f9	-0.18308248
55	0x3e84f1f4	0.25965846
56	0xbf077da2	-0.52926075
57	0x3e59df58	0.21276605
58	0x3e2abc6a	0.16673437
59	0xbea80072	-0.3281284
60	0xbe216aff	-0.15763472
61	0xbf521f37	-0.8207888
62	0x3ea73ce7	0.32663652
63	0x3cc19cfb	0.023634424

mlp_extractor.value_net.0.bias f4 [32]
0	0x00000000	0.0
1	0x00000000	0.0
2	0x00000000	0.0
3	0x00000000	0.0
4	0x00000000	0.0
5	0x00000000	0.0
6	0x00000000	0.0
7	0x00000000	0.0
8	0x00000000	0.0
9	0x00000000	0.0
10	0x00000000	0.0
11	0x00000000	0.0
12	0x00000000	0.0
13	0x00000000	0.0
14	0x00000000	0.0
15	0x00000000	0.0
16	0x00000000	0.0
17	0x00000000	0.0
18	0x00000000	0.0
19	0x00000000	0.0
20	0x00000000	0.0
21	0x00000000	0.0
22	0x00000000	0.0
23	0x00000000	0.0
24	0x00000000	0.0
25	0x00000000	0.0
26	0x00000000	0.0
27	0x00000000	0.0
28	0x00000000	0.0
29	0x00000000	0.0
30	0x00000000	0.0
31	0x00000000	0.0

mlp_extractor.value_net.2.weight f4 [32, 32]
0	0x3e19cc75	0.150194
1	0xbe212ead	-0.15740462
2	0xbedad43c	-0.42740047
3	0x3d179e39	0.037016127
4	0xbeae68cd	-0.34064332
5	0xbdabbfdc	-0.08386204
6	0xbcbef697	-0.023310943
7	0x3d0b9a8d	0.034082938
8	0x3dae4070	0.08508384
9	0xbec4271f	-0.38311097
10	0xbe23bc83	-0.1598988
11	0x3eee1977	0.46503803
12	0xbd8bdcbd	-0.06829212
13	0xbca6bcbd	-0.02035367
14	0xbdbbc82b	-0.091690384
15	0xbd612f93	-0.05497701
16	0xbe1f180c	-0.15536517
17	0xbdadeb8f	-0.08492195
18	0x3f2427b8	0.64123106
19	0x3e50110f	0.20319007
20	0xbbb9a474	-0.0056653563
21	0xbcf41a81	-0.029797794
22	0xbdfa7237	-0.12228816
23	0x3e37268a	0.17885795
24	0x3def91d8	0.11697739
25	0x3bcbc049	0.0062179905
26	0x3d9ec139	0.07751698
27	0xbc9b541c	-0.018961005
28	0xbf3afed3	-0.7304508
29	0xbdf78f3d	-0.120878674
30	0x3eb95f38	0.3620546
31	0x3cb2ea07	0.021840109
32	0x3f0364d7	0.51325744
33	0x3d943a78	0.072377145
34	0xbde70e0a	-0.112819746
35	0x3ea3fbd0	0.32028055
36	0x3eaffc80	0.3437233
37	0x3cc53d5b	0.024077108
38	0x3e6cd2e0	0.23127317
39	0xbe2a1fe0	-0.16613722
40	0xbf00d88a	-0.5033041
41	0x3d107fe2	0.03527821
42	0x3ec62173	0.38697395
43	0x3da6f41a	0.081520274
44	0x3e9882a5	0.29787174
45	0xbebd8587	-0.37015936
46	0x3da8b5c6	0.082377955
47	0xbeb011f2	-0.3438869
48	0xbe228a64	-0.15873104
49	0xbe666614	-0.22499877
50	0xbe587f1f	-0.21142243
51	0x3d496d8a	0.04917673
52	0xbe2666ec	-0.16250199
53	0xbc30c38d	-0.01078881
54	0xbe4f1e40	-0.20226383
55	0x3dbdbe4a	0.092648104
56	0xbda8229d	-0.08209727
57	0xbe1bc77a	-0.15212813
58	0x3eda39c0	0.42622185
59	0x3ee08b9c	0.43856514
60	0xbddc21bf	-0.10748624
61	0x3d32dfa0	0.043670297
62	0x3dea859b	0.114512645
63	0xbe220ee8	-0.15825999
64	0xbe608240	-0.21924686
65	0xbc9cee13	-0.019156491
66	0xbe49c8e2	-0.19705537
67	0xbdfaec5d	-0.12252114
68	0x3ec833f9	0.39102152
69	0xbe7668ee	-0.24063465
70	0x3da303e2	0.07959725
71	0x3e353599	0.17696227
72	0x3ed5277c	0.41631687
73	0xbd84009a	-0.06445427
74	0x3e4d3cd4	0.20042735
75	0x3ed80f8c	0.4219936
76	0x3e079d2d	0.13243552
77	0xbc9f2bdb	-0.019430092
78	0x3efc941c	0.49331748
79	0x3e889ac8	0.2668059
80	0x3e93c665	0.288623
81	0xbeb35628	-0.3502667
82	0xbd7404e8	-0.05957499
83	0xbe7d3cbf	-0.24730204
84	0x3d286a40	0.041116953
85	0x3e87a89d	0.2649583
86	0x3d38c38c	0.045108363
87	0x3ddffc1b	0.10936757
88	0xbe61311f	-0.21991394
89	0xbe0ba932	-0.13638762
90	0x3de37482	0.111062065
91	0xbe2351b7	-0.1594914
92	0x3e0c497d	0.13699909
93	0x3ee624c5	0.44949928
94	0x3ef42238	0.47682357
95	0xbddc5b30	-0.1075958
96	0xbdeafd98	-0.114741504
97	0x3db1df25	0.086851396
98	0x3deb2411	0.114814885
99	0x3dd267ad	0.10273681
100	0x3ef638a1	0.4809008
101	0xbe938842	-0.28814894
102	0x3e26e498	0.16298139
103	0xbe47765b	-0.19478743
104	0x3e45962d	0.19295569
105	0xbdb68728	-0.08912498
106	0x3d9b5e0d	0.07586298
107	0xbc1fb208	-0.009747036
108	0x3e15428d	0.14576168
109	0x3d5d226c	0.053987905
110	0xbe77d475	-0.2420214
111	0xbe1f105b	-0.15533583
112	0x3ebdcacf	0.37068793
113	0x3e3d0ef0	0.1846273
114	0x3e69998d	0.22812481
115	0x3db12aaf	0.086507194
116	0x3c863bc5	0.016385922
117	0xbeb62ce2	-0.35581118
118	0x3d934ca3	0.07192352
119	0xbf23d2bd	-0.63993436
120	0xbf17c1cd	-0.5928009
121	0xbdad4952	-0.0846125
122	0xbd54330d	-0.0518065
123	0xbe04e8db	-0.12979452
124	0xbed4120d	-0.41420022
125	0xbe33b2ac	-0.17548627
126	0xbe15987e	-0.14608952
127	0xbe57f6cd	-0.21090241
128	0x3e71dbe5	0.2361904
129	0x3ac9b0b7	0.0015387748
130	0x3df79d1c	0.12090513
131	0xbee8ea41	-0.45491222
132	0xbd03ebeb	-0.03220741
133	0xbe3415ac	-0.17586392
134	0x3e6d081a	0.23147622
135	0xbf32c204	-0.69827294
136	0xbe2e5101	-0.17023088
137	0x3d17570e	0.036948256
138	0xbecff99b	-0.4062012
139	0x3e7bb6ec	0.24581498
140	0xbe853653	-0.2601801
141	0x3cf7a850	0.030231625
142	0xbdd4e76e	-0.10395704
143	0x3d0c8420	0.03430569
144	0x3e266fba	0.16253558
145	0x3e437ac3	0.19089799
146	0x3da476d8	0.0803048
147	0xbf3ac5b1	-0.72957903
148	0xbd4d4a07	-0.050119426
149	0x3d30cead	0.04316585
150	0xbca160bc	-0.019699447
151	0xbe0eac18	-0.13932836
152	0x3e6c37dc	0.23068184
153	0x3d33edfb	0.043928128
154	0x3e8e10e0	0.2774725
155	0x3dbbf517	0.091776066
156	0x3d1f81e9	0.03894225
157	0x3e0ca42e	0.13734505
158	0x3d898ba3	0.06716087
159	0xbe17abc8	-0.14811623
160	0x3e6962cf	0.22791599
161	0x3d042b74	0.032268003
162	0x3dcaa21b	0.098942004
163	0x3cd49526	0.025950026
164	0x3d2705fa	0.040777184
165	0xbb0f88e6	-0.0021901666
166	0x3f05fbde	0.52337444
167	0x3e21c131	0.15796353
168	0xbe2eb6f2	-0.17061976
169	0x3e703d35	0.23460849
170	0x3e5c75e4	0.21529347
171	0xbe9fcbc9	-0.31210163
172	0xbec147d6	-0.3775012
173	0x3e69a452	0.2281659
174	0xbe850103	-0.25977334
175	0x3eb65dec	0.35618532
176	0x3caf57e0	0.021404207
177	0xbe72c0f4	-0.23706418
178	0x3f0884c7	0.533276
179	0x3e2f02d9	0.1709093
180	0xbb98e4c9	-0.004665945
181	0x3d07fc9d	0.033199895
182	0xbe75c210	-0.2399981
183	0xbddff2c1	-0.109349735
184	0x3d45580a	0.048179664
185	0xbe2f76da	-0.17135182
186	0xbe9d8b68	-0.3077042
187	0x3e128afc	0.14310831
188	0x3c2ad7f8	0.0104274675
189	0x3f28198a	0.6566397
190	0xbbcab435	-0.006186033
191	0x3c14c464	0.009080026
192	0xbe9aaef6	-0.3021161
193	0xbd8288d0	-0.06373751
194	0x3e4c12b0	0.19929004
195	0xbd0494e7	-0.032368567
196	0xbbc852da	-0.0061133923
197	0xbf21d938	-0.63222075
198	0xbe7bf615	-0.24605592
199	0xbad91739	-0.0016562707
200	0xbcaacbcd	-0.020849133
201	0x3e6e4b9b	0.23271029
202	0xbe5537be	-0.20822045
203	0xbe344970	-0.17606139
204	0xbbb8e853	-0.0056429296
205	0xbedf3b01	-0.43599704
206	0xbe6f9c4f	-0.23399471
207	0x3e45a60f	0.19301628
208	0x3e98bd0f	0.2983174
209	0xbdf06ff1	-0.11740101
210	0x3e2a5741	0.16634847
211	0x3e662a50	0.22477078
212	0x3e203450	0.15644956
213	0x3d799309	0.06093124
214	0xbea06aa2	-0.31331354
215	0x3ebef0ae	0.37293
216	0x3e1e442a	0.1545569
217	0xbf11aa82	-0.569008
218	0x3e6e08e2	0.23245576
219	0x3e2193fd	0.1577911
220	0x3dbf0188	0.09326464
221	0xbe871ee2	-0.2639075
222	0xbd999e79	-0.075009294
223	0xbe412179	-0.18860425
224	0xbe5732be	-0.2101545
225	0x3e936672	0.28789097
226	0xbe58a8cf	-0.21158145
227	0xbe029fb0	-0.12756228
228	0xbe753922	-0.23947576
229	0xbbd25489	-0.006418769
230	0x3d1efa53	0.038812947
231	0x3e84612b	0.25855383
232	0xbe2f6a4c	-0.17130393
233	0x3eaf4d28	0.34238553
234	0x3ebd851d	0.3701562
235	0x3f27de8c	0.65573955
236	0xbdb8621a	-0.090030864
237	0x3e9b9bc3	0.30392274
238	0xbe68833a	-0.22706309
239	0xbd6275d5	-0.055288155
240	0xbc413c74	-0.011794198
241	0x3d6f0f1e	0.058364026
242	0x3c46d3af	0.01213543
243	0xbe2321a0	-0.15930796
244	0x3e4c4a95	0.19950326
245	0xbedcd4af	-0.43131015
246	0xbf0d039d	-0.5508364
247	0xbc8d1249	-0.017220633
248	0xbe4d9dda	-0.20079747
249	0x3c890b64	0.016729064
250	0x3e3820eb	0.17981307
251	0xbc9920f2	-0.018692467
252	0x3ead653c	0.33866298
253	0xbe51e15d	-0.20496126
254	0xbded897b	-0.11598488
255	0x3dfe7ed1	0.12426532

mlp_extractor.value_net.2.bias f4 [32]
0	0x00000000	0.0
1	0x00000000	0.0
2	0x00000000	0.0
3	0x00000000	0.0
4	0x00000000	0.0
5	0x00000000	0.0
6	0x00000000	0.0
7	0x00000000	0.0
8	0x00000000	0.0
9	0x00000000	0.0
10	0x00000000	0.0
11	0x00000000	0.0
12	0x00000000	0.0
13	0x00000000	0.0
14	0x00000000	0.0
15	0x00000000	0.0
16	0x00000000	0.0
17	0x00000000	0.0
18	0x00000000	0.0
19	0x00000000	0.0
20	0x00000000	0.0
21	0x00000000	0.0
22	0x00000000	0.0
23	0x00000000	0.0
24	0x00000000	0.0
25	0x00000000	0.0
26	0x00000000	0.0
27	0x00000000	0.0
28	0x00000000	0.0
29	0x00000000	0.0
30	0x00000000	0.0
31	0x00000000	0.0

action_net.weight f4 [2, 32]
0	0x3e2511c3	0.16120057
1	0xbdeff6c2	-0.11716987
2	0x3d80a6b3	0.06281795
3	0xbb48b799	-0.003062701
4	0x3a1a1ada	0.0005878635
5	0xbe1a4847	-0.15066634
6	0xbdce701e	-0.100799784
7	0xbccd829e	-0.025086697
8	0xbe39183c	-0.18075651
9	0xbe06882b	-0.13137881
10	0xbde1f484	-0.11032966
11	0x3a8ac7b4	0.0010588081
12	0xbd8695db	-0.065715514
13	0x3d9c6087	0.07635599
14	0x3b800743	0.0039071157
15	0x38e76e6a	0.000110355046
16	0x3a94ee5a	0.0011362538
17	0x3a884786	0.0010397292
18	0xbab6b7b7	-0.0013940249
19	0x3ae635eb	0.0017563676
20	0x3a5761a5	0.0008216149
21	0xbd8bdc46	-0.06829123
22	0xbdcc9aad	-0.099904396
23	0x3a86e67e	0.0010292081
24	0xbd514911	-0.051095072
25	0xbd7a1b2a	-0.061061062
26	0x3d3e2867	0.04642525
27	0xbd648be9	-0.05579749
28	0x3a709437	0.0009177359
29	0x3dad2771	0.084547885
30	0x39d1b974	0.0004000176
31	0xb8f8f69c	-0.00011871496
32	0xbe23144e	-0.15925714
33	0x3dec81f7	0.11548226
34	0xbd87a711	-0.06623662
35	0xbb66d81a	-0.0035224021
36	0x39d6e780	0.00040989742
37	0x3e1973d0	0.14985585
38	0x3dd0972d	0.101850845
39	0x3ce32364	0.027726837
40	0x3e380827	0.1797186
41	0x3e0664d5	0.13124402
42	0x3de61a5f	0.11235499
43	0xb99468cd	-0.00028306842
44	0x3d853345	0.065039195
45	0xbda00667	-0.07813721
46	0xba85f7af	-0.001022091
47	0x3aacb467	0.0013176323
48	0x39770f39	0.00023561426
49	0x3a8c3b64	0.0010698852
50	0xbadfbc27	-0.0017069624
51	0x3b08e0c5	0.0020885926
52	0x3a327d01	0.0006808788
53	0x3d8ef2be	0.06979893
54	0x3dd14873	0.10218897
55	0x3a208237	0.0006122919
56	0x3d44edaf	0.048078235
57	0x3d8106b5	0.063001074
58	0xbd45b364	-0.048266783
59	0x3d7b62c5	0.06137349
60	0x3a30e6fb	0.0006748286
61	0xbda5486d	-0.08070455
62	0x3a1a76ac	0.0005892317
63	0xb875aa56	-5.857119e-05

action_net.bias f4 [2]
0	0x3e342016	0.17590365
1	0xbe342145	-0.17590816

value_net.weight f4 [1, 32]
0	0x3e37a7b8	0.17935073
1	0x3cd3fb63	0.025876706
2	0xbeaae820	-0.33380222
3	0x3e04a2e3	0.12952761
4	0xbe4ccf16	-0.20000872
5	0x3b49a074	0.0030765804
6	0x3d90bcda	0.070672706
7	0xbe353b04	-0.17698294
8	0x3c98c848	0.018650189
9	0x3949e860	0.0001925542
10	0x3e0474d8	0.12935197
11	0x3e05567c	0.13021272
12	0x3e341e5f	0.1758971
13	0xbd147b5b	-0.036250453
14	0xbd5af23e	-0.053453676
15	0x3e904bb3	0.28182754
16	0x3dc33a41	0.095325954
17	0x3ce9a932	0.028523061
18	0x3d8cec84	0.06881049
19	0xbe80d187	-0.25159857
20	0xbe819636	-0.25309914
21	0x3eb870e5	0.36023632
22	0xbe874773	-0.264217
23	0xbcc7fe40	-0.024413228
24	0x3dff0efe	0.124540314
25	0xbdbd30a2	-0.092377916
26	0xbebe7a03	-0.37202463
27	0x3df4b4b7	0.11948531
28	0xbd61b03f	-0.055099722
29	0xbd81f18c	-0.063448995
30	0xbe3b1d64	-0.1827293
31	0xbe6f8446	-0.23390302
